model/model.pth (torch, 16799 bytes, 4 tensors)

linear1.weight f4 [256, 11]
0.22945526 -0.2947034 0.23806322 -0.010065346 -0.2794616 -0.22135842 0.026630035 -0.35731453
0.2491168 -0.15269287 0.16279954 0.14655419 0.09324709 -0.13686958 -0.11083944 -0.050891045
0.14288656 0.026972925 -0.102721915 -0.31577155 0.047060702 -0.29637292 -0.36523512 -0.07879205
0.03132281 0.22389643 0.053968556 -0.08169527 0.0017719269 -0.08230655 -0.2383422 -0.31092656
-0.22245964 0.18678957 -0.012384146 0.08917917 0.23780482 0.2570321 0.04893178 -0.11655014
-0.17114833 0.33226436 0.21821901 0.29012614 0.0065720263 0.016561225 0.24387056 -0.15737575
0.15457311 0.11308049 0.00545894 -0.04340567 0.31767768 -0.12566471 0.0075852936 0.04433699
-0.23967516 -0.17239907 -0.12479449 -0.1515444 -0.3016796 -0.2040574 -0.21846047 0.16879876
0.21983047 0.1232651 0.2707861 -0.11557955 -0.27405018 -0.015545857 -0.29235256 0.09284488
0.055283114 -0.020408887 0.11343901 0.1442114 0.32298926 0.1544465 0.32288966 -0.21813072
0.22310296 -0.20385754 0.08253987 -0.013985776 -0.054991562 -0.28564397 0.16122456 -0.24060227
-0.3115912 0.12703255 -0.30836922 -0.18100661 -0.24109136 0.0014198074 0.016586214 -0.21009377
0.038679257 0.1575139 -0.3941682 -0.2680803 -0.16834101 0.34182277 0.20110999 0.35589746
0.29313198 0.3068865 0.08385091 0.08850433 -0.20659341 -0.27788922 -0.4078091 0.26177412
-0.13718267 0.11716921 0.21479116 -0.14134768 0.07590697 -0.1223271 -0.17778912 -0.08602617
0.15097809 0.0035111425 0.2784902 0.11514781 0.12271234 -0.23260783 0.13925385 0.2401172
0.10279021 -0.181077 -0.034479503 -0.050122876 -0.032820962 0.024530556 -0.2012744 0.048768222
-0.09762315 0.34137103 -0.15039188 0.09548606 0.09914638 -0.15022248 0.41658148 -0.22910312
0.2545847 -0.24992904 0.17196071 0.07276735 -0.029485298 0.22346655 0.21901464 -0.13337632
0.22606319 0.012041875 0.26186824 0.13171561 -0.0054281577 -0.29236135 -0.28658196 -0.10377585
-0.25711033 -0.33974427 -0.1515524 0.19176555 -0.18644616 0.06433154 0.15809354 0.10889255
-0.018428952 0.28032765 -0.14766154 0.2732312 -0.29871595 0.2962479 0.028230766 0.28034744
0.1363825 -0.2401379 -0.03754929 -0.32286334 -0.03652624 0.02597301 0.07937061 -0.121052235
0.3673134 -0.35324365 0.0580916 0.3058789 0.083840564 -0.29135627 0.037013255 0.02084615
0.116364084 -0.041232076 -0.1800878 0.12488504 0.14133804 0.21135269 -0.26715428 0.018748807
0.1917073 -0.037248142 -0.181012 -0.24308191 0.31733042 -0.080085695 0.1870868 -0.30216354
0.06184474 0.008050647 -0.15027891 -0.24541964 -0.14137967 -0.0174869 0.119941264 -0.26255345
-0.020279944 0.13948046 -0.24573697 -0.06367545 0.22902098 -0.39003053 -0.04132753 0.02633339
0.01925766 -0.018600635 0.17874013 -0.12957637 0.18126486 -0.16883482 0.20786701 0.1995874
0.19380963 -0.054235358 -0.09541349 0.014921174 -0.04793731 0.1202179 0.20571706 0.20853066
-0.15646353 0.20116328 -0.08493848 -0.02042237 -0.09483422 0.09392193 0.1665633 -0.015632987
0.14370996 0.085911065 0.058086067 -0.055403218 -0.034008503 0.2917217 0.10005663 -0.41677362
00000000: 52f6 6a3e 5de3 96be d8c6 733e 1fe9 24bc
00000010: 9715 8fbe c8ab 62be 3b27 da3c eef1 b6be
00000020: 7918 7f3e 855b 1cbe ecb4 263e 4d12 163e
00000030: 55f8 be3d 8a27 0cbe caff e2bd 2173 50bd
00000040: db50 123e 53f6 dc3c de5f d2bd cfac a1be
00000050: b9c2 403d 31be 97be 1900 bbbe ba5d a1bd
00000060: 594c 003d 1b45 653e 220e 5d3d da4f a7bd
00000070: 0040 e83a 5690 a8bd fa0f 74be c431 9fbe
00000080: 76cc 63be c445 3f3e e0e6 4abc 92a3 b63d
00000090: 1b83 733e b699 833e b16c 483d d7b1 eebd
000000a0: 8241 2fbe 8e1e aa3e ce74 5f3e 6a8b 943e
000000b0: 275a d73b 68ab 873c 34b9 793e 1c27 21be
000000c0: 6a48 1e3e be96 e73d e8e0 b23b 25ca 31bd
000000d0: a6a6 a23e 40ae 00be 0e8e f83b b49a 353d
000000e0: 686d 75be 6289 30be 4194 ffbd 752e 1bbe
000000f0: c075 9abe 6cf4 50be 1ab4 5fbe 95d9 2c3e
00000100: 3d1b 613e 6a72 fc3d 7aa4 8a3e f9b4 ecbd
00000110: 4e50 8cbe 0db4 7ebc 3caf 95be 7525 be3d
00000120: 8c70 623d 8a30 a7bc b652 e83d 27ac 133e
00000130: d95e a53e 3927 1e3e cb51 a53e a95d 5fbe
00000140: 1a75 643e 08c0 50be aa0a a93d 9924 65bc
00000150: d53e 61bd ed3f 92be 0d18 253e 7160 76be
00000160: e288 9fbe d214 023e 92e2 9dbe cc59 39be
00000170: a7e0 76be d518 ba3a d0df 873c d222 57be
00000180: 246e 1e3d 534b 213e 6ad0 c9be d241 89be
00000190: 9661 2cbe 6503 af3e c7ef 4d3e 3138 b63e
000001a0: 6515 963e 3a20 9d3e 07ba ab3d c241 b53d
000001b0: 398d 53be 7f47 8ebe 5bcc d0be 4207 863e
000001c0: 9d79 0cbe 69f6 ef3d 37f2 5b3e 72bd 10be
000001d0: 1d75 9b3d a186 fabd 5a0e 36be 7d2e b0bd
000001e0: 009a 1a3e 321b 663b 4496 8e3e 9dd2 eb3d
000001f0: 9b50 fb3d bf30 6ebe 9098 0e3e 49e1 753e
00000200: ac83 d23d 406c 39be 613a 0dbd a54d 4dbd
00000210: 466f 06bd 4ef4 c83c e01a 4ebe 30c1 473d
00000220: a5ee c7bd 2fc8 ae3e 5400 1abe 328e c33d
00000230: 420d cb3d ecd3 19be 2b4a d53e 029a 6abe
00000240: ed58 823e 66ed 7fbe 7816 303e 0c07 953d
00000250: 278b f1bc 6ad4 643e 6045 603e cd93 08be
00000260: 1c7d 673e 494b 453c 9813 863e 75e0 063e
00000270: b0de b1bb 63b0 95be dfba 92be 6f88 d4bd
00000280: f7a3 83be f6f2 adbe 8d30 1bbe 305e 443e
00000290: beeb 3ebe 41c0 833d 46e3 213e 0f03 df3d
000002a0: 50f8 96bc 1b87 8f3e 9634 17be f6e4 8b3e
000002b0: 4cf1 98be cead 973e 3544 e73c b389 8f3e
000002c0: dba7 0b3e b6e6 75be 49cd 19bd 584e a5be
000002d0: 8a9c 15bd 5ac5 d43c 0f8d a23d 3cea f7bd
000002e0: 8110 bc3e 5adc b4be 75f1 6d3d 299c 9c3e
000002f0: 9ab4 ab3d a62c 95be 369b 173d 8cc5 aa3c
00000300: 4b50 ee3d f7e2 28bd f068 38be bac3 ff3d
00000310: ebba 103e d76c 583e 72c8 88be 1997 993c
00000320: eb4e 443e 8291 18bd 365b 39be 77ea 78be
00000330: 2279 a23e f803 a4bd af93 3f3e 2eb5 9abe
00000340: e950 7d3d dce6 033c b7e2 19be 494f 7bbe
00000350: d5c5 10be b040 8fbc c4a3 f53d 686d 86be
00000360: 2022 a6bc f7d3 0e3e 79a2 7bbe 4668 82bd
00000370: 7a84 6a3e 15b2 c7be 0e47 29bd 1fb9 d73c
00000380: 3dc2 9d3c 5c60 98bc a707 373e abaf 04be
00000390: 7f9d 393e 09e3 2cbe 17db 543e a460 4c3e
000003a0: 0876 463e e525 5ebd 2668 c3bd f177 743c
000003b0: ea59 44bd cd34 f63d 7ea7 523e 1089 553e
000003c0: fa37 20be bffd 4d3e 3af4 adbd d04c a7bc
000003d0: 7238 c2bd 245a c03d 928f 2a3e c010 80bc
000003e0: b428 133e 24f2 af3d a8eb 6d3d 7cee 62bd
000003f0: 804c 0bbd 8c5c 953e 7eea cc3d 5a63 d5be

linear1.bias f4 [256]
-0.17844199 -0.12374539 -0.053558912 0.09064568 0.10323983 -0.10899473 0.19452198 -0.085513175
0.023566134 -0.052351344 0.23196001 0.15078345 -0.05678216 0.029802104 -0.27879447 0.2823141
-0.008666537 0.1550899 -0.27038747 -0.14895539 0.15050411 0.2579828 -0.22865541 -0.21159215
0.060902815 0.14858334 0.29981148 -0.16352941 -0.0880444 -0.012830764 -0.07547672 0.45088175
-0.07918204 0.18486474 -0.28984708 0.0773065 0.17456274 0.38242376 -0.042275116 -0.013215157
-0.0454883 0.19849162 -0.36858252 -0.18364672 0.23825362 0.036723252 -0.32894927 0.24574138
-0.087454736 -0.10820507 0.18022355 -0.120132744 -0.25388318 0.18941194 -0.19073847 -0.25887534
-0.23209202 0.18802828 -0.19057351 -0.07378873 -0.0963282 -0.06282235 0.041900985 0.2204779
-0.017199395 0.03484856 0.22588083 0.3361591 0.057866458 0.26190916 0.047918014 -0.009649813
0.30213717 -0.22829169 0.08565244 0.08921073 0.37968215 0.032598734 -0.2809676 0.23605824
-0.23670852 -0.0204673 0.11118308 -0.009744619 -0.124752186 -0.0078094667 -0.29151 -0.103262305
0.3533615 0.37851262 0.2332247 0.1697989 0.23102218 0.19943969 0.37965107 0.37050793
0.30982777 -0.13909423 -0.3186662 0.095218144 0.15888281 -0.057755012 -0.13561508 -0.10870369
-0.21268846 -0.2575515 -0.29552424 0.23493616 -0.19711716 -0.30558982 0.36363685 -0.15017562
-0.036808725 -0.25079197 -0.095492 0.076411396 -0.27083266 -0.06508708 -0.16581635 -0.23742558
0.15085544 0.26161426 0.13955851 -0.2499364 0.14718415 0.13140686 -0.10051259 -0.34988976
-0.2658601 0.39820063 -0.23843627 -0.2534877 -0.34681678 0.27680784 0.12357519 -0.1627593
-0.24928436 0.22697856 -0.231602 -0.022908809 -0.2463354 -0.19101992 0.12097106 -0.042295553
-0.24266264 0.19583714 0.09688599 0.077888496 0.217399 0.23390034 -0.26890105 -0.1472406
0.10763866 -0.046310395 -0.01516408 0.3451167 0.3247583 0.005767385 -0.18221535 -0.13088682
-0.053317897 -0.03524577 -0.36507297 0.41149458 -0.02905483 -0.19284302 -0.26659563 -0.1139673
0.16961552 0.1370082 -0.1747769 0.41917437 0.2816221 0.29553145 0.33710465 -0.21280617
0.28784242 -0.35479662 -0.12179358 0.12633918 0.35430697 0.30258512 -0.14966592 -0.24164793
-0.25083756 -0.16102631 -0.15595223 -0.03533865 -0.22924635 0.20511705 0.0015716323 -0.17122564
-0.050773975 0.31767592 0.15529639 -0.033469886 -0.23354569 -0.18481797 0.20135593 -0.0982249
-0.14117752 -0.08372879 -0.213864 -0.24877177 -0.27755454 0.08167926 -0.035452954 0.23658258
-0.088025264 -0.24072355 0.19904126 -0.19296147 0.18941744 -0.179719 -0.018076895 -0.13364005
0.27833363 -0.29237717 -0.3168483 -0.122088194 0.08765066 0.23238069 -0.21678695 -0.0252535
0.3369859 0.1899442 0.44838095 0.05553244 -0.27710527 -0.13023098 0.18656929 0.30007833
-0.2135334 0.18883713 -0.13743104 0.17841263 0.052127145 0.07112584 0.17839414 -0.11224114
-0.032626472 -0.03582744 0.14753176 0.14534982 0.2546081 0.10764708 -0.067486644 0.099896796
-0.26115495 -0.17062256 -0.15908432 0.25281483 0.40287414 -0.09456742 -0.12229851 -0.21826313
00000000: 7fb9 36be 396e fdbd 9760 5bbd 71a4 b93d
00000010: 676f d33d a138 dfbd c530 473e 8821 afbd
00000020: c40d c13c 5d6e 56bd ed86 6d3e fa66 1a3e
00000030: 6994 68bd 8b23 f43c 26be 8ebe 798b 903e
00000040: 17fe 0dbc e3cf 1e3e 3a70 8abe c387 18be
00000050: c01d 1a3e 5216 843e a524 6abe 9dab 58be
00000060: 3b75 793d 3b26 183e e480 993e 4174 27be
00000070: 9f50 b4bd 2038 52bc 8a93 9abd f9d9 e63e
00000080: 322a a2bd 2f4d 3d3e d666 94be df52 9e3d
00000090: 93c0 323e 0ccd c33e ac28 2dbd 6384 58bc
000000a0: f151 3abd 6341 4b3e d9b6 bcbe e30d 3cbe
000000b0: c2f8 733e 1f6b 163d 0a6c a8be a1a3 7b3e
000000c0: 781b b3bd 9f9a ddbd 868c 383e 2808 f6bd
000000d0: fafc 81be 34f5 413e f250 43be 4f8b 84be
000000e0: 88a9 6dbe 7c8a 403e b425 43be 8c1e 97bd
000000f0: b847 c5bd 01a9 80bd 5ea0 2b3d f5c4 613e
00000100: bfe5 8cbc 5dbd 0e3d 4e4d 673e 0c1d ac3e
00000110: 6105 6d3d f518 863e ae45 443d 401a 1ebc
00000120: b9b1 9a3e 4cc5 69be 8c6a af3d 1db4 b63d
00000130: b365 c23e 4086 053d fcda 8fbe 40b9 713e
00000140: b863 72be 0aab a7bc f4b3 e33d e5a7 1fbc
00000150: 137e ffbd 8ee6 ffbb cc40 95be 307b d3bd
00000160: cceb b43e 68cc c13e 75d2 6e3e c3df 2d3e
00000170: 1491 6c3e eb39 4c3e a061 c23e 37b3 bd3e
00000180: bfa1 9e3e b86e 0ebe 3728 a3be bb01 c33d
00000190: 2db2 223e 8590 6cbd aede 0abe 0aa0 debd
000001a0: 01cb 59be cadd 83be f44e 97be 1b93 703e
000001b0: 15d9 49be 4576 9cbe 9c2e ba3e a3c7 19be
000001c0: bfc4 16bd ce67 80be 4f91 c3bd 947d 9c3d
000001d0: 94aa 8abe 604c 85bd c3cb 29be b11f 73be
000001e0: d979 1a3e 4ef2 853e 6de8 0e3e 54ef 7fbe
000001f0: 71b7 163e 858f 063e 8bd9 cdbd c024 b3be
00000200: d11e 88be f4e0 cb3e a328 74be 24c9 81be
00000210: f891 b1be c2b9 8d3e fd14 fd3d 60aa 26be
00000220: 6644 7fbe 116d 683e 1329 6dbe 41ab bbbc
00000230: 593f 7cbe ba9a 43be adbf f73d 1a3e 2dbd
00000240: 8e7c 78be 8889 483e 296c c63d 0184 9f3d
00000250: d89d 5e3e 9283 6f3e 66ad 89be 3dc6 16be
00000260: a871 dc3d f8af 3dbd c372 78bc 23b3 b03e
00000270: b846 a63e 55fc bc3b a996 3abe 3207 06be
00000280: de63 5abd de5d 10bd d8ea babe 6baf d23e
00000290: 6504 eebc a478 45be 397f 88be b067 e9bd
000002a0: b1af 2d3e e14b 0c3e b7f8 32be 069e d63e
000002b0: c630 903e e64f 973e fb98 ac3e dce9 59be
000002c0: 1560 933e e7a7 b5be ea6e f9bd 0f5f 013e
000002d0: b967 b53e 70ec 9a3e 0642 19be 8e72 77be
000002e0: c86d 80be 15e4 24be f1b1 1fbe 43bf 10bd
000002f0: 8ebf 6abe 340a 523e 3bff cd3a c655 2fbe
00000300: 5ff8 4fbd 6ba6 a23e 0406 1f3e b817 09bd
00000310: 9a26 6fbe ec40 3dbe 4030 4e3e 232a c9bd
00000320: d790 10be 007a abbd 2aff 5abe 07be 7ebe
00000330: a11b 8ebe 7547 a73d 1e37 11bd b442 723e
00000340: 9746 b4bd 3c80 76be 79d1 4b3e b197 45be
00000350: a5f6 413e 4208 38be ff15 94bc f0d8 08be
00000360: bf81 8e3e 76b2 95be f139 a2be 6009 fabd
00000370: 3082 b33d 34f5 6d3e 66fd 5dbe 6ee0 cebc
00000380: 6a89 ac3e bb80 423e 3092 e53e fc75 633d
00000390: bee0 8dbe 455b 05be 050c 3f3e dea3 993e
000003a0: 80a8 5abe 855e 413e b9ba 0cbe cdb1 363e
000003b0: 4683 553d 6daa 913d f4ac 363e afde e5bd
000003c0: 56a3 05bd cbbf 12bd 9112 173e 95d6 143e
000003d0: fe5b 823e 1376 dc3d 7036 8abd b196 cc3d
000003e0: 1ab6 85be aeb7 2ebe 00e7 22be f270 813e
000003f0: 8545 ce3e 90ac c1bd a477 fabd 5f80 5fbe

linear2.weight f4 [3, 256]
-0.06767917 0.0730535 -8.362847e-05 -0.057777144 -0.03489151 0.011709111 -0.07756233 0.019853292
-0.016084071 -0.08194771 -0.1726813 -0.06408652 -0.13944435 -0.027503451 0.07004814 -0.06771162
-0.07627973 -0.06143591 -0.0029637332 -0.01993208 -0.07986318 -0.11248403 0.029515862 -0.0523012
-0.12816527 -0.08195202 -0.100970425 -0.053494733 0.042332537 -0.04544736 0.031889103 -0.13415582
0.023390815 -0.046113268 0.06831492 -0.07615978 -0.13025987 -0.059505332 -0.09414761 -0.023582874
-0.059078828 -0.10684539 -0.007144168 -0.024450537 -0.027866788 0.0048713274 0.016976923 -0.045741897
-0.03619489 -0.08256186 -0.034862492 0.07322839 0.0067759943 -0.0024411418 -0.014195974 0.045137037
-0.029357696 -0.13731687 -0.033072922 -0.050219532 -0.1520485 -0.038391326 0.044514745 0.0070362524
0.074422844 -0.07989903 -0.040569007 -0.05638819 -0.04160164 -0.0679579 -0.071832456 0.083858915
-0.09472041 -0.042437166 -0.036063604 -0.00085772236 -0.06785494 -0.014213783 -0.029755415 -0.05690227
0.04047042 -0.11976756 -0.0832397 -0.06804975 -0.040700566 0.0010051746 -0.021756837 -0.0043007433
-0.108560614 -0.17466897 -0.034433607 -0.008842381 -0.04507035 -0.049921498 -0.12802377 -0.06577836
-0.04154574 -0.051061198 -0.027681144 -0.057846457 -0.029444797 0.00770548 0.0023183555 -0.08638737
-0.008744571 -0.0017959579 0.00043066603 -0.07424837 -0.06170154 0.04128477 -0.06555402 0.003088853
-0.039753772 0.005181985 0.07078016 -0.06845902 -0.03481323 0.013461022 -0.017999236 0.024971584
-0.06430294 -0.11825693 -0.050288938 0.028567277 -0.099034935 -0.04649499 0.12368109 0.01426746
-0.09915483 -0.20754893 -0.06037162 -0.024936238 0.08642987 -0.077943474 -0.10153308 -0.10752206
-0.020885922 -0.078611694 0.003853508 -0.002119833 0.051241882 -0.019278789 -0.02232973 -0.020590017
-0.033083122 -0.1360115 -0.11411974 -0.12609372 -0.06996018 -0.07072919 -0.0272385 -0.01642399
-0.059190325 0.027218739 0.018037973 -0.07188739 -0.081153356 -0.025265964 0.028952116 -0.08988979
-0.071187094 0.019295648 -0.00827299 -0.16284703 -0.13952173 -0.036048517 0.027740011 -0.026877183
-0.014567427 -0.080619045 -0.15932775 -0.06667645 -0.030670114 -0.22892259 -0.06788292 0.050507266
-0.113342464 -0.003415822 -0.0437698 -0.032221757 -0.06987995 -0.035279285 0.040638234 -0.044200256
-0.021806942 -0.055853054 -0.09325094 -0.029726144 -0.0050633787 -0.1132422 0.015220846 0.017415741
-0.012275041 -0.07293368 -0.05600868 0.01803859 -0.04197987 -0.1989246 -0.0708871 -0.021828813
-0.027820593 -0.08642439 -0.01264479 -0.06633216 -0.09356759 -0.06504017 -0.11008932 -0.02922598
-0.05209325 -0.062175527 -0.09792423 -0.0097370315 -0.095426075 0.0138928415 -0.05024883 -0.09062356
-0.07422818 -0.038108785 -0.025546268 -0.09527275 -0.014745817 -0.07060787 -0.06046371 -0.0096492395
-0.089416005 -0.004428179 -0.11258779 -0.0648475 -0.0048689344 -0.03196736 -0.091113485 -0.089524396
0.06573324 -0.10962744 0.027655495 0.024531683 -0.093392715 0.011272668 -0.03492209 -0.10947549
-0.020608291 -0.162244 -0.065608546 -0.076571435 -0.10584573 -0.011446905 -0.21086152 -0.054963175
-0.039842322 0.0534281 -0.05686322 -0.043088086 -0.13546267 -0.017769517 -0.027619444 -0.071967445
00000000: 609b 8abd 139d 953d b161 afb8 baa7 6cbd
00000010: 66ea 0ebd 92d7 3f3c 00d9 9ebd 5fa3 a23c
00000020: bec2 83bc 33d4 a7bd 5ed3 30be cb3f 83bd
00000030: 80ca 0ebe eb4e e1bc 6675 8f3d 64ac 8abd
00000040: 8c38 9cbd 39a4 7bbd 313b 42bb 9a48 a3bc
00000050: 4f8f a3bd 075e e6bd 40cb f13c c839 56bd
00000060: c23d 03be 76d6 a7bd 95c9 cebd 4b1d 5bbd
00000070: e264 2d3d 0327 3abd 269e 023d 2560 09be
00000080: 189e bf3c 44e1 3cbd b1e8 8b3d a9f9 9bbd
00000090: d862 05be ddbb 73bd 76d0 c0bd df30 c1bc
000000a0: a4fc 71bd c1d1 dabd a019 eabb 7e4c c8bc
000000b0: e448 e4bc a89f 9f3b 3013 8b3c db5b 3bbd
000000c0: 1841 14bd 3116 a9bd f9cb 0ebd c4f8 953d
000000d0: 2909 de3b 90fb 1fbb 3b96 68bc 9de1 383d
000000e0: 8d7f f0bc cb9c 0cbe 7977 07bd ffb2 4dbd
000000f0: 9ab2 1bbe 3940 1dbd 1855 363d 5d90 e63b
00000100: 016b 983d 1aa2 a3bd b02b 26bd 4df7 66bd
00000110: 7b66 2abd 832d 8bbd e51c 93bd 39be ab3d
00000120: c6fc c1bd 98d2 2dbd 6eb7 13bd c6d8 60ba
00000130: 88f7 8abd ede0 68bc a1c1 f3bc 5b12 69bd
00000140: 50c4 253d b248 f5bd 9379 aabd ab5d 8bbd
00000150: a3b5 26bd 10c0 833a 653b b2bc 40ed 8cbb
00000160: 0755 debd 6cdc 32be 410a 0dbd a2df 10bc
00000170: b09b 38bd 7c7a 4cbd aa18 03be ceb6 86bd
00000180: de2b 2abd 8c25 51bd 91c3 e2bc 68f0 6cbd
00000190: 3736 f1bc 407e fc3b 8def 173b ddeb b0bd
000001a0: 6445 0fbc 5966 ebba 04cb e139 880f 98bd
000001b0: c1ba 7cbd 381a 293d 3041 86bd 5b6e 4a3b
000001c0: dad4 22bd a4cd a93b 30f5 903d 3e34 8cbd
000001d0: 5198 0ebd 9e8b 5c3c 2273 93bc 3591 cc3c
000001e0: 43b1 83bd b030 f2bd c6fb 4dbd ec05 ea3c
000001f0: d4d2 cabd 8871 3ebd 834c fd3d 11c2 693c
00000200: b011 cbbd b587 54be 3b48 77bd 1547 ccbc
00000210: 2502 b13d d4a0 9fbd 93f0 cfbd 8734 dcbd
00000220: f418 abbc 2bff a0bd 238b 7c3b e5ec 0abb
00000230: 02e3 513d 8dee 9dbc d7ec b6bc 65ac a8bc
00000240: 2b82 07bd 9946 0bbe 9cb7 e9bd b61e 01be
00000250: 4847 8fbd 77da 90bd 4623 dfbc 9a8b 86bc
00000260: 8e71 72bd d5f9 de3c 5fc4 933c b239 93bd
00000270: bb33 a6bd 91fa cebc fd2c ed3c 2318 b8bd
00000280: 8aca 91bd e811 9e3c 6f8b 07bc 5fc1 26be
00000290: c9de 0ebe 9ca7 13bd 053f e33c 8a2d dcbc
000002a0: 38ac 6ebc 991b a5bd d026 23be aa8d 88bd
000002b0: e43f fbbc af6a 6abe 3306 8bbd b5e0 4e3d
000002c0: 1820 e8bd fcdb 5fbb f647 33bd f6fa 03bd
000002d0: 381d 8fbd 0381 10bd 4774 263d 540b 35bd
000002e0: 79a4 b2bc 2cc6 64bd 59fa bebd 3e84 f3bc
000002f0: b3ea a5bb 87eb e7bd db60 793c 75ab 8e3c
00000300: 411d 49bc 415e 95bd 5c69 65bd aac5 933c
00000310: 16f3 2bbd e4b2 4bbe 422d 91bd 57d2 b2bc
00000320: 03e8 e3bc 45ff b0bd 182c 4fbc 28d9 87bd
00000330: 5da0 bfbd c833 85bd 8276 e1bd 536b efbc
00000340: bb5f 55bd c4ab 7ebd 808c c8bd 1288 1fbc
00000350: bf6e c3bd cd9e 633c b8d1 4dbd d898 b9bd
00000360: f204 98bd f517 1cbd 6846 d1bc 5c1e c3bd
00000370: 7098 71bc dc9a 90bd cca8 77bd d817 1ebc
00000380: bd1f b7bd 421a 91bb 6d94 e6bd c4ce 84bd
00000390: 958b 9fbb 35f0 02bd b599 babd 9158 b7bd
000003a0: 269f 863d 5a84 e0bd c78d e23c abf6 c83c
000003b0: ae44 bfbd ffb0 383c 770a 0fbd b034 e0bd
000003c0: b8d2 a8bc 4b23 26be c65d 86bd 7cd1 9cbd
000003d0: a5c5 d8bd cd8b 3bbc 15ec 57be 1121 61bd
000003e0: b431 23bd 6cd7 5a3d 68e9 68bd 227d 30bd
000003f0: bab6 0abe 6191 91bc 2c42 e2bc ab63 93bd

linear2.bias f4 [3]
-0.15571444 -0.0674993 -0.18448296
00000000: 9b73 1fbe 133d 8abd 1ae9 3cbe
