model/model.pth (torch, 16799 bytes, 4 tensors)

linear1.weight f4 [256, 11]
0.13483107 -0.08671749 0.232983 0.16174757 0.19868173 -0.19735418 0.17077374 0.47777352
0.05338537 0.3772093 0.20653448 0.094565004 0.22611499 0.09806809 0.42099848 0.13222398
-0.0105206445 -0.12411346 -0.3381372 0.23116975 0.12734455 0.21259737 0.17549899 -0.22694187
0.27925783 0.1391033 0.37003753 0.20812757 -0.11989461 0.044696104 -0.057549573 -0.06887677
0.29748788 -0.26272333 0.27398884 -0.09489773 0.08795006 0.101568 0.15448709 0.08649769
-0.2636273 0.09194356 -0.5572126 -0.11792932 -0.28373298 0.10122597 -0.15739255 -0.09386074
-0.0942668 -0.19102496 -0.23221914 0.1627036 0.116495095 0.267938 0.15805939 0.26914024
-0.29319617 -0.1374542 0.05975619 0.0055457354 -0.2836924 -0.03852868 0.23013943 -0.16071533
-0.053460866 0.0054493546 -0.2922558 0.18302459 0.120025605 0.24898443 -0.027625741 -0.15493362
-0.31041375 0.26517096 0.050705627 -0.21213295 -0.4766519 0.26555264 0.27652562 0.14023548
-0.18474704 0.33479688 -0.10830363 0.3204783 0.31128216 -0.21160571 0.23582876 -0.15683268
0.25525844 0.0018176138 0.03787738 -0.4815413 0.14250554 -0.19283077 0.14285444 0.4586599
0.2441397 0.06171042 -0.22278811 0.12091854 -0.18848352 0.093553305 0.11901447 0.25913224
0.20027956 -0.32923165 -0.48664317 0.22448178 -0.32492268 0.20425037 -0.29325742 0.053822994
-0.07935445 0.23293011 -0.3154224 0.12186077 -0.25198942 -0.3324774 0.29270053 0.19676061
0.15465887 0.2032755 0.11541048 -0.19918334 -0.14989418 0.3169093 -0.032777417 -0.29350045
0.35884762 0.15653546 0.09319522 -0.09650508 -0.25260773 0.055180818 0.016646951 0.18795396
0.18267529 -0.04634604 0.06395607 0.30001068 -0.025144244 0.18401884 -0.0747487 -0.12956116
-0.1258444 -0.06665449 0.008243203 -0.08643511 0.022559347 -0.29129875 0.0423716 -0.18886736
-0.06963487 0.21344186 0.14261395 0.012014359 -0.123560086 0.024215851 -0.013957729 -0.2396947
0.20432615 -0.31319118 0.16479073 -0.20219935 -0.3909245 -0.05263105 -0.21185546 -0.22711778
-0.25005376 0.15705222 -0.19521731 0.09622333 -0.25647968 0.18495668 0.26353514 -0.1972932
0.091670215 -0.106842265 0.25912625 0.3854672 0.18760629 -0.2233487 -0.32144016 0.32672364
-0.14355288 -0.2558548 0.1393026 -0.1144207 0.17925096 -0.14535406 0.38174888 0.16958177
-0.43985403 0.25148863 -0.28434592 0.24994944 0.37137836 -0.3491458 0.12682071 0.059609175
-0.17683995 -0.07555335 0.29574236 -0.12735385 0.19912021 0.45301473 0.15760356 0.14042063
-0.22454791 0.15231767 0.022666156 -0.059374347 -0.2697593 -0.1388669 -0.16394563 -0.23763052
0.0028146505 -0.12682468 -0.033279628 -0.24521224 -0.19791535 0.037997782 0.1256055 -0.45720625
-0.037001673 0.26665354 0.24103631 0.15075393 0.40606436 -0.60261184 -0.10416271 -0.23014978
0.026861817 -0.0014988482 0.13200216 -0.29506448 0.34348518 -0.062294766 -0.40896657 -0.5256735
0.1471519 0.3986925 -0.29593047 -0.26481384 -0.28647652 -0.08287283 0.10549256 0.100152306
0.16887979 -0.23161821 -0.05919337 -0.1397356 -0.32538205 -0.23326704 -0.020245671 -0.26062167
00000000: 2811 0a3e f098 b1bd 1893 6e3e 28a1 253e
00000010: 3973 4b3e 3717 4abe 50df 2e3e bb9e f43e
00000020: 9eaa 5a3d 9421 c13e c67d 533e 4cab c13d
00000030: b08a 673e ecd7 c83d 1d8d d73e b965 073e
00000040: c85e 2cbc 332f febd 5220 adbe c3b7 6c3e
00000050: 9c66 023e 20b3 593e 02b6 333e 7363 68be
00000060: e2fa 8e3e 1871 0e3e 8f75 bd3e 651f 553e
00000070: 4e8b f5bd 4313 373d 1ab9 6bbd 440f 8dbd
00000080: 5550 983e ac83 86be 4448 8c3e be59 c2bd
00000090: 291f b43d e202 d03d dd31 1e3e b325 b13d
000000a0: 28fa 86be e84c bc3d 7ca5 0ebf ed84 f1bd
000000b0: 7345 91be 904f cf3d 832b 21be 0f3a c0bd
000000c0: f40e c1bd 0c9c 43be dbca 6dbe c69b 263e
000000d0: fb94 ee3d 2b2f 893e 52da 213e c0cc 893e
000000e0: cf1d 96be cbc0 0cbe e8c2 743d 00b9 b53b
000000f0: 2140 91be 40d0 1dbd aca9 6b3e 8f92 24be
00000100: c8f9 5abd 8090 b23b 8da2 95be cc6a 3b3e
00000110: fccf f53d c6f5 7e3e 614f e2bc eba6 1ebe
00000120: 8dee 9ebe 7dc4 873e b4b0 4f3d 6139 59be
00000130: b80b f4be 84f6 873e c494 8d3e e499 0f3e
00000140: 542e 3dbe 7f6a ab3e 4bce ddbd bb15 a43e
00000150: 6060 9f3e 2baf 58be 187d 713e bf98 20be
00000160: 3cb1 823e 003d ee3a 5025 1b3d 958c f6be
00000170: f9ec 113e 6e75 45be 6f48 123e 78d5 ea3e
00000180: c2ff 793e 11c4 7c3d 9122 64be 24a4 f73d
00000190: d301 41be e098 bf3d dcbd f33d fbac 843e
000001a0: 1616 4d3e 0d91 a8be 4b29 f9be 8dde 653e
000001b0: 445c a6be 0227 513e d625 96be 8075 5c3d
000001c0: 9684 a2bd 3b85 6e3e 0b7f a1be 2492 f93d
000001d0: c204 81be 7a3a aabe d8dc 953e 9d7b 493e
000001e0: e55e 1e3e 7427 503e 545c ec3d b8f6 4bbe
000001f0: dc7d 19be f041 a23e 9d41 06bd b145 96be
00000200: e0ba b73e d54a 203e 23dd be3d 75a4 c5bd
00000210: cd55 81be 4805 623d 305f 883c 0177 403e
00000220: 3b0f 3b3e 58d5 3dbd 66fb 823d 009b 993e
00000230: 4dfb cdbc 6f6f 3c3e d915 99bd aeab 04be
00000240: 5bdd 00be 2682 88bd 800e 073c e404 b1bd
00000250: 61ce b83c 1c25 95be d88d 2d3d 7266 41be
00000260: ba9c 8ebd 8190 5a3e 6409 123e e0d7 443c
00000270: 120d fdbd 5260 c63c f5ae 64bc 8772 75be
00000280: e03a 513e 985a a0be e7be 283e 590d 4fbe
00000290: 4227 c8be a893 57bd a3f0 58be 9091 68be
000002a0: 0c07 80be 4cd2 203e 0ce7 47be bd10 c53d
000002b0: 4e51 83be 4965 3d3e 14ee 863e 3b07 4abe
000002c0: 98bd bb3d 1ed0 dabd 32ac 843e f55b c53e
000002d0: dd1b 403e 86b5 64be ce93 a4be 5248 a73e
000002e0: 87ff 12be 66ff 82be 57a5 0e3e 6655 eabd
000002f0: 908d 373e b2d7 14be 9774 c33e d8a6 2d3e
00000300: 8c34 e1be 1ec3 803e ca95 91be bff2 7f3e
00000310: 4e25 be3e 3dc3 b2be 4add 013e c028 743d
00000320: 8815 35be b7bb 9abd 8b6b 973e 0c69 02be
00000330: 2be6 4b3e 8cf1 e73e d462 213e 6dca 0f3e
00000340: e3ef 65be 2af9 1b3e 60ae b93c 8432 73bd
00000350: e41d 8abe 2033 0ebe 5de1 27be 6a55 73be
00000360: 0076 383b 54de 01be 3850 08bd eb18 7bbe
00000370: 52aa 4abe 90a3 1b3d ba9e 003e f016 eabe
00000380: 118f 17bd d086 883e 39d2 763e 3d5f 1a3e
00000390: abe7 cf3e c544 1abf 4253 d5bd 62ac 6bbe
000003a0: 500d dc3c 0075 c4ba 932b 073e b112 97be
000003b0: 4add af3e cc28 7fbd 1164 d1be 8a92 06bf
000003c0: fdae 163e 6c21 cc3e 3384 97be ae95 87be
000003d0: 0dad 92be 3bb9 a9bd 7c0c d83d a71c cd3d
000003e0: d3ee 2c3e 532d 6dbe bf74 72bd d916 0fbe
000003f0: 7a98 a6be 8edd 6ebe 40da a5bc 3470 85be

linear1.bias f4 [256]
0.0017065757 -0.11865219 -0.17476346 0.22760311 0.18949878 -0.29815245 -0.03718318 -0.13366508
0.09913432 0.13639992 0.106554255 -0.111910485 0.060567677 -0.30376908 0.06536321 -0.16430789
-0.12968841 0.04997491 -0.02182884 0.10247603 -0.060080152 -0.12627943 0.018256363 0.34114364
0.072521955 0.2258227 0.26157662 0.0134296315 -0.024335437 0.12393915 -0.13643435 -0.04800643
0.16177271 0.22184849 -0.13351312 0.23638356 0.12816425 0.0018072327 0.103246205 -0.15218055
-0.048359904 0.10648737 0.04726962 0.2813202 0.13074413 0.11022825 -0.23306583 0.1993362
0.10604341 -0.2563724 -0.061584063 -0.27793562 0.35340372 0.13807946 -0.050213695 0.17586763
0.22148979 -0.1353435 -0.24313676 0.029600503 0.10690792 -0.2859877 -0.0013815796 0.015376922
-0.08752402 -0.1572989 -0.2980252 -0.24047264 -0.25977412 0.021662777 0.071476124 0.10426739
-0.22136486 0.2665597 0.30180573 0.029326083 -0.22280622 0.05817071 0.13319728 -0.2742007
-0.18457152 -0.01712443 -0.08507197 -0.04980177 -0.31028834 0.13066518 -0.15178205 0.06093803
-0.10551956 -0.2038637 -0.2814558 -0.029059226 -0.24710217 0.19552408 0.042351037 -0.13286573
-0.30327395 0.15032707 0.1804977 -0.15596397 0.038386762 -0.062186975 -0.035487622 0.0351172
-0.118668295 0.16815108 -0.17462666 -0.12616564 0.10062657 0.20946215 0.0845667 -0.1735678
0.21603966 -0.03677623 -0.062992506 -0.14122419 0.21670514 0.16659133 -0.23889005 -0.22025312
0.1124732 -0.18814708 0.022674358 -0.024478033 0.15370141 0.054693066 0.18566646 -0.21292497
0.024300028 0.030850554 0.2113424 0.06277146 0.11714923 0.35564384 0.059801765 -0.035614405
-0.16665989 0.082280226 -0.13557719 -0.25584823 -0.0974083 0.085203625 0.02362446 0.21324876
0.05804243 0.20666115 0.24760488 -0.25305563 -0.05867048 0.049774453 -0.08524401 -0.19164962
0.15506311 0.112338 -0.18149425 -3.2345182e-05 0.4389658 -0.2718688 0.28543726 0.21478999
0.36108816 0.030925144 0.40259743 0.19665974 0.215182 0.11070649 -0.11558165 -0.096011996
-0.10641085 0.15103245 -0.041676085 0.16366453 0.2140932 0.13309936 0.043471985 0.21314189
-0.105089225 0.11988739 0.04408359 -0.17035513 -0.2924948 -0.092906766 0.4438036 -0.038793094
-0.30841568 0.2646646 0.052290253 0.052046616 -0.040934667 0.15904698 -0.17220393 -0.31333122
-0.19013613 -0.049204286 0.09072984 0.22311187 0.13564636 -0.02478236 -0.040151555 0.031246895
-0.16566087 0.1519075 -0.07382765 -0.093501896 0.06921445 -0.07865442 0.10639808 -0.22336744
-0.14653218 0.06558758 0.25543725 0.14193863 0.052870885 -0.14640369 0.30851847 -0.2074259
0.10279524 -0.2515321 0.0042583947 0.060216513 0.18562599 0.3185748 0.08686989 -0.19231726
0.23870423 -0.10364188 -0.02479436 0.15786968 -0.13887079 0.1875661 0.2611146 0.11349158
0.052079044 -0.15929946 0.08843103 -0.20928043 -0.19645186 -0.23751235 -0.043509323 0.05628644
0.20233373 0.23241733 0.08442667 -0.09038067 -0.047693722 -0.06171206 0.03290669 0.11294597
0.2200759 0.1588911 0.26991948 -0.015359596 -0.00263807 0.26522052 -0.26943654 0.06657905
00000000: 2eaf df3a ebff f2bd 31f5 32be ca10 693e
00000010: f80b 423e 70a7 98be 644d 18bd 80df 08be
00000020: ef06 cb3d 6cac 0b3e 1e39 da3d 5331 e5bd
00000030: d015 783d 9f87 9bbe 26dd 853d 5440 28be
00000040: 0acd 04be 7eb2 4c3d 65d2 b2bc f4de d13d
00000050: 9b16 76bd 654f 01be 5e8e 953c 61aa ae3e
00000060: 6486 943d 113e 673e 5fed 853e f507 5c3c
00000070: 1c5b c7bc cfd3 fd3d 72b5 0bbe 64a2 44bd
00000080: bfa7 253e 402c 633e aab7 08be 880e 723e
00000090: 7d3d 033e abe0 ec3a bf72 d33d 38d5 1bbe
000000a0: 0915 46bd 0d16 da3d ca9d 413d 3409 903e
000000b0: cae1 053e 59bf e13d cfa8 6ebe ca1e 4c3e
000000c0: 4a2d d93d 3e43 83be 923f 7cbd 944d 8ebe
000000d0: 55f1 b43e b464 0d3e e0ac 4dbd a516 343e
000000e0: 38ce 623e 7d97 0abe d8f8 78be c17c f23c
000000f0: 8af2 da3d fb6c 92be 1e16 b5ba 7cef 7b3c
00000100: cb3f b3bd f612 21be c296 98be 763e 76be
00000110: 1d01 85be 2376 b13c 1362 923d 248a d53d
00000120: 78ad 62be 837a 883e 4886 9a3e 413d f03c
00000130: 5027 64be 6944 6e3d de64 083e 0964 8cbe
00000140: 5100 3dbe 8848 8cbc 373a aebd f1fc 4bbd
00000150: 1dde 9ebe 18cd 053e c16c 1bbe 289a 793d
00000160: a41a d8bd a5c1 50be fa1a 90be 9d0d eebc
00000170: 5a08 7dbe 7737 483e 4878 2d3d f40d 08be
00000180: b946 9bbe 57ef 193e 64d4 383e 05b5 1fbe
00000190: 703b 1d3d c5b7 7ebd 785b 11bd 0ed7 0f3d
000001a0: 5d08 f3bd cc2f 2c3e 55d1 32be 9131 01be
000001b0: 4e15 ce3d 3f7d 563e 4e31 ad3d c2bb 31be
000001c0: 8039 5d3e aca2 16bd 3702 81bd 139d 10be
000001d0: f4e7 5d3e eb96 2a3e 989f 74be 098a 61be
000001e0: 5958 e63d a1a9 40be 93bf b93c 2886 c8bc
000001f0: e763 1d3e d605 603d 591f 3e3e 0109 5abe
00000200: da10 c73c 4dba fc3c 246a 583e 538e 803d
00000210: efeb ef3d f316 b63e b2f2 743d 69e0 11bd
00000220: e4a8 2abe 8982 a83d bfd4 0abe 8afe 82be
00000230: 017e c7bd 3d7f ae3d 1588 c13c e25d 5a3e
00000240: e6bd 6d3d fb9e 533e 228c 7d3e 8290 81be
00000250: 7550 70bd 4ce0 4b3d 6994 aebd cc3f 44be
00000260: ddc8 1e3e 7711 e63d a1d9 39be 60aa 07b8
00000270: 20c0 e03e 6332 8bbe d524 923e e8f1 5b3e
00000280: 8ce0 b83e ba56 fd3c 4021 ce3e 2c61 493e
00000290: ac58 5c3e 16ba e23d 12b6 ecbd f0a1 c4bd
000002a0: efed d9bd 40a8 1a3e 8bb4 2abd ad97 273e
000002b0: 3f3b 5b3e 334b 083e ae0f 323d de41 5a3e
000002c0: 0539 d7bd 8587 f53d ff90 343d 9371 2ebe
000002d0: e1c1 95be e745 bebd 3a3a e33e 82e5 1ebd
000002e0: a9e8 9dbe 1e82 873e 4e2e 563d d52e 553d
000002f0: 1cab 27bd 36dd 223e 3a56 30be f36c a0be
00000300: 0cb3 42be 6f8a 49bd 91d0 b93d 7077 643e
00000310: e1e6 0a3e 6004 cbbc f575 24bd 7df9 ff3c
00000320: 01a3 29be a48d 1b3e f332 97bd ec7d bfbd
00000330: 4ec0 8d3d 9215 a1bd 3de7 d93d 6fba 64be
00000340: 880c 16be c852 863d acc8 823e 5c58 113e
00000350: 248f 583d d9ea 15be 22f6 9d3e 7567 54be
00000360: 5086 d23d d1c8 80be 018a 8b3b 97a5 763d
00000370: bd14 3e3e 3c1c a33e d7e8 b13d d1ee 44be
00000380: e26e 743e 3242 d4bd 8b1d cbbc 97a8 213e
00000390: 2534 0ebe 5411 403e d0b0 853e 466e e83d
000003a0: d650 553d 661f 23be 541b b53d 9c4d 56be
000003b0: ad2a 49be 7036 73be d536 32bd 9c8c 663d
000003c0: 9330 4f3e cffe 6d3e e4e7 ac3d 8019 b9bd
000003d0: 7e5a 43bd c9c5 7cbd 2ac9 063d 3750 e73d
000003e0: 945b 613e 59b4 223e e332 8a3e d1a6 7bbc
000003f0: 78e3 2cbb fcca 873e 96f3 89be 995a 883d

linear2.weight f4 [3, 256]
-0.118750185 -0.22449385 -0.22378063 0.002417371 -0.102202594 -0.0030469075 0.102539435 -0.3517267
-0.32878318 -0.14457697 -0.12755767 -0.19832096 -0.058163557 0.0052533224 -0.14888522 -0.08953822
0.16861291 -0.3753623 -0.2310428 -0.054121047 -0.13846853 0.09317697 -0.08225916 -0.02297748
0.15351357 -0.11003051 -0.12615024 -0.07795492 -0.35375643 -0.2123047 -0.12822747 -0.37002507
-0.017673545 -0.02604675 0.016569873 -0.07082589 0.078556545 0.0025870749 -0.08884196 -0.048951913
-0.083839 0.07225915 -0.27265027 -0.15297608 -0.16850445 0.23462747 -0.062001076 0.11693686
-0.16116868 -0.24298355 -0.12856731 0.050240405 -0.05546519 -0.041040197 -0.032785706 0.34710374
-0.05546906 0.03761943 -0.020537198 -0.33423394 0.0065479665 -0.23249951 -0.061392542 0.33048147
0.014628859 0.084238805 0.049543433 0.015181472 0.21127419 -0.10418131 -0.020502897 -0.19469753
0.05759719 -0.1294269 -0.11647117 -0.16289765 -0.14556938 -0.055167865 -0.03755233 -0.053006187
-0.07340309 -0.02275118 0.14888832 0.015769886 -0.01239042 -0.0228352 -0.27556542 -0.033188954
0.32565793 -0.16055779 0.013747685 -0.20629627 0.029183306 0.055172414 -0.032391965 0.010572808
-0.014712618 -0.07996782 -0.15222624 -0.2597762 0.061357073 -0.46307653 -0.35543156 -0.021634597
-0.0018755675 -0.002809088 -0.13101266 -0.14724472 -0.39568433 0.19164947 -0.299905 0.021182455
0.17599781 -0.38742563 -0.33175573 -0.22672716 -0.07765773 -0.11832087 -0.012254693 0.07105488
-0.09650419 0.079506494 0.20214438 -0.05031651 0.20330663 -0.11293335 0.16176409 -0.47874776
-0.070283785 0.018251864 -0.12354689 -0.03754173 -0.19004822 0.09686221 0.2204588 0.060704753
0.23268089 -0.14898126 -0.0647525 0.03710004 -0.022402326 -0.03145614 0.02284217 -0.112730905
0.25928864 -0.146416 -0.04656872 -0.05570882 -0.05310572 -0.11095904 0.2268271 -0.050643258
-0.3919891 -0.12094388 -0.011304809 0.2506864 -0.07058724 -0.054302566 0.17812686 0.029388057
-0.08715623 -0.024611443 -0.030991841 0.28407586 -0.07101081 0.03870807 -0.051289283 -0.10769714
-0.28258896 -0.21711469 -0.07929257 -0.10533925 -0.063376606 -0.06650009 -0.108871475 -0.08915693
0.013981882 -0.08394619 0.06367532 0.16322805 0.050502505 -0.078027114 0.061777897 -0.21961884
-0.102531366 0.024304505 -0.04555197 -0.06432926 0.16897832 -0.031334996 0.10729914 0.004343629
0.066491686 -0.13803388 0.055990882 0.1772329 -0.01735188 0.34873918 0.37418997 -0.012699793
-0.2385033 -0.23073591 0.24608327 0.0004047379 0.1472475 0.04188915 -0.26030368 0.023823297
0.086227074 -0.23184344 -0.07934321 -0.11594877 -0.15876725 0.19095677 -0.011218711 0.042666513
-0.11728595 0.007350944 -0.17952605 -0.08150131 -0.049985442 -0.031211613 -0.2760608 0.005151026
-0.028842421 0.08182264 -0.1996098 0.115899734 0.27622846 0.21026975 -0.1057228 0.18028481
-0.047065303 -0.23703821 -0.10007363 0.047873817 -0.057990454 -0.30029276 -0.09625703 0.008085557
-0.15147278 -0.016702935 -0.1560426 -0.35913476 -0.0937508 0.0077706007 0.2849746 -0.059245426
-0.123216614 -0.052699763 -0.03633121 -0.08969911 -0.025787713 0.07575855 0.11377764 -0.19303429
00000000: 4c33 f3bd b7e1 65be c026 65be c16c 1e3b
00000010: 984f d1bd a0ae 47bb 3200 d23d 8615 b4be
00000020: 4556 a8be fc0b 14be 7a9e 02be a614 4bbe
00000030: e93c 6ebd 1024 ac3b 5e75 18be d05f b7bd
00000040: dda8 2c3e 7d2f c0be 7c96 6cbe 08ae 5dbd
00000050: b2ca 0dbe 91d3 be3d 7e77 a8bd 453b bcbc
00000060: a932 1d3e ad57 e1bd 872d 01be d4a6 9fbd
00000070: 901f b5be 6766 59be 104e 03be ed73 bdbe
00000080: 1cc8 90bc fe5f d5bc 8bbd 873c 2a0d 91bd
00000090: 41e2 a03d ea8b 293b c6f2 b5bd cd81 48bd
000000a0: c8b3 abbd 9bfc 933d d198 8bbe c3a5 1cbe
000000b0: 6e8c 2cbe 2f42 703e d7f4 7dbd 987c ef3d
000000c0: 6709 25be aed0 78be 26a7 03be e2c8 4d3d
000000d0: 782f 63bd c419 28bd 4e4a 06bd 95b7 b13e
000000e0: 8633 63bd d516 1a3d a03d a8bc b620 abbe
000000f0: 5390 d63b 5a14 6ebe bf76 7bbd de34 a93e
00000100: e2ad 6f3c 6585 ac3d 0eee 4a3d b5bb 783c
00000110: 4358 583e 035d d5bd b1f5 a7bc ca5e 47be
00000120: 08eb 6b3d 7c88 04be 7088 eebd a4ce 26be
00000130: 2410 15be b3f7 61bd 79d0 19bd 041d 59bd
00000140: 5c54 96bd af60 babc 2e76 183e d92f 813c
00000150: 3001 4bbc e310 bbbc e916 8dbe 24f1 07bd
00000160: a3bc a63e 4369 24be f83d 613c 543f 53be
00000170: d411 ef3c 78fc 613d 70ad 04bd 9239 2d3c
00000180: 310d 71bc 2bc6 a3bd 32e1 1bbe 6301 85be
00000190: 8e51 7b3d 5e18 edbe 20fb b5be 0a3b b1bc
000001a0: 9ad5 f5ba ad18 38bb 2f28 06be 52c7 16be
000001b0: 2397 cabe c23f 443e 268d 99be d486 ad3c
000001c0: c538 343e a75c c6be e3db a9be 2a2b 68be
000001d0: 040b 9fbd 3652 f2bd e8c7 48bc 3985 913d
000001e0: fda3 c5bd 4dd4 a23d f0fe 4e3e af18 4ebd
000001f0: 9d2f 503e 9a49 e7bd 7ca5 253e 6d1e f5be
00000200: f2f0 8fbd ef84 953c 2706 fdbd 5bc5 19bd
00000210: 009c 42be b25f c63d f4bf 613e 8ca5 783d
00000220: e643 6e3e 8b8e 18be f59c 84bd 36f6 173d
00000230: 1585 b7bc 27d8 00bd 811f bb3c 76df e6bd
00000240: 7bc1 843e 13ee 15be d8be 3ebd ee2e 64bd
00000250: 6285 59bd 7e3e e3bd 5d45 683e 4e6f 4fbd
00000260: ccb2 c8be 6db1 f7bd ce37 39bc f859 803e
00000270: 0b90 90bd 5e6c 5ebd e366 363e 39bf f03c
00000280: f77e b2bd f09d c9bc 9ae2 fdbc 6472 913e
00000290: 1e6e 91bd 5a8c 1e3d b614 52bd 5190 dcbd
000002a0: 80af 90be 5053 5ebe 2564 a2bd 1bbc d7bd
000002b0: 98cb 81bd 3331 88bd 02f8 debd e997 b6bd
000002c0: 4314 653c fbeb abbd 3568 823d 4125 273e
000002d0: b7db 4e3d aecc 9fbd d20a 7d3d c3e3 60be
000002e0: f7fb d1bd 3e1a c73c b494 3abd 0fbf 83bd
000002f0: a708 2d3e 2059 00bd a7bf db3d 0055 8e3b
00000300: cb2c 883d c158 0dbe b256 653d 8b7c 353e
00000310: 8825 8ebc f18d b23e d495 bf3e cb12 50bc
00000320: 363a 74be 0946 6cbe 41fd 7b3e 0033 d439
00000330: 0cc8 163e f593 2b3d 8646 85be 1329 c33c
00000340: d297 b03d 5e68 6dbe b17e a2bd 8c76 edbd
00000350: e293 22be 2c8a 433e afce 37bc 15c3 2e3d
00000360: 9e33 f0bd 30e0 f03b add5 37be 29ea a6bd
00000370: 89bd 4cbd 7faf ffbc d757 8dbe f0c9 a83b
00000380: f146 ecbc a192 a73d 8366 4cbe d75c ed3d
00000390: d16d 8d3e f450 573e 3285 d8bd 959c 383e
000003a0: 8cc7 40bd 25ba 72be 67f3 ccbd 5617 443d
000003b0: 6687 6dbd f9bf 99be 6822 c5bd 4979 043c
000003c0: ae1b 1bbe 98d4 88bc a2c9 1fbe 83e0 b7be
000003d0: 6b00 c0bd 86a0 fe3b 31e8 913e 55ab 72bd
000003e0: fe58 fcbd b5db 57bd 09d0 14bd 2bb4 b7bd
000003f0: c140 d3bc 4c27 9b3d 4004 e93d c8aa 45be

linear2.bias f4 [3]
0.039843958 -0.08907317 -0.015740765
00000000: 6b33 233d ff6b b6bd c7f2 80bc
