model/model.pth (torch, 16799 bytes, 4 tensors)

linear1.weight f4 [256, 11]
0	0xbd43d160	-0.047807097
1	0xbd2c6dc0	-0.042096853
2	0xbe2109db	-0.15726416
3	0xbe176d6b	-0.14787833
4	0xbde917f9	-0.113815255
5	0x3e31619c	0.17322391
6	0xbe6c83b8	-0.23097122
7	0xbdf03bfd	-0.11730192
8	0xbe7b8bac	-0.24565
9	0x3e4d3066	0.20037994
10	0x3e47ca5b	0.19510786
11	0x3e00f9b4	0.12595254
12	0xbde86356	-0.11347072
13	0xbdd1e0f2	-0.10247983
14	0x3e48b5d2	0.19600609
15	0x3da1300c	0.07870492
16	0x3e816331	0.2527099
17	0x3e393d40	0.18089771
18	0xbe44ed15	-0.19231065
19	0xbe3633b1	-0.17793156
20	0xbe610207	-0.2197343
21	0xbe6f697a	-0.2338008
22	0x3e0690a4	0.13141114
23	0xbc043ec0	-0.008071601
24	0x3e632fe0	0.22186232
25	0xbe0da43a	-0.13832179
26	0xbe4afe73	-0.19823627
27	0xbc129b53	-0.008948165
28	0xbaeaddc4	-0.0017918875
29	0x3eaf6ffe	0.3426513
30	0x3d929c41	0.07158709
31	0xbd8e1edf	-0.06939482
32	0x3e8b114c	0.27161634
33	0x3db6f1ec	0.08932862
34	0xbd171bb8	-0.03689167
35	0xbdc0aa44	-0.094074756
36	0x3dfab7ac	0.12242064
37	0x3e7bb899	0.24582137
38	0x3d60d781	0.05489302
39	0x3e114115	0.14184983
40	0x3e685e00	0.22692108
41	0x3cd0ca82	0.025487188
42	0x3e7180f6	0.23584351
43	0xbd3226a2	-0.043493874
44	0x3dbacb30	0.09120786
45	0xbe01c710	-0.12673593
46	0xbceae7c0	-0.02867496
47	0x3d7431ce	0.05961781
48	0xbe003d94	-0.1252349
49	0xbd7fa568	-0.062413603
50	0xbe885f57	-0.2663524
51	0x3e879905	0.26483932
52	0xbdddced0	-0.10830462
53	0x3e2f4698	0.17116773
54	0x3d8a4f97	0.06753462
55	0xbddae972	-0.106890574
56	0x3cc6cb30	0.02426681
57	0x3c8b4d00	0.01700449
58	0xbdd4ada7	-0.10384684
59	0xbd00dbc2	-0.031459577
60	0x3e45d2e0	0.19318724
61	0xbe98739f	-0.29775712
62	0x3ea2f470	0.31827116
63	0xbe104c45	-0.14091595
64	0x3e435501	0.19075395
65	0xbe5b6360	-0.21424627
66	0x3e3750be	0.17901894
67	0x3e20b2a0	0.1569314
68	0xbde8cbc6	-0.11366992
69	0x3e1fe776	0.15615639
70	0x3e7925ae	0.2433078
71	0x3cd79d15	0.02632002
72	0xbd9fffc8	-0.07812458
73	0x3d5113b0	0.051044166
74	0x3e98eedf	0.29869744
75	0xbe832bc3	-0.25619325
76	0xbdfb87d5	-0.12281767
77	0x3cc3b170	0.02388832
78	0x3e88f18c	0.26746786
79	0x3e7f5f90	0.24938798
80	0x3e03542c	0.12825078
81	0x3e51b6d2	0.20479897
82	0x3eb54bac	0.35409296
83	0x3e639ff5	0.22228988
84	0x3dd7d470	0.10538566
85	0x3e057ba9	0.13035454
86	0x3e4defab	0.20110957
87	0x3df066c6	0.117383525
88	0xbe4e8bab	-0.20170467
89	0xbca95750	-0.020671517
90	0xbe4b41a4	-0.19849259
91	0xbe8a7a8a	-0.27046615
92	0x3c1d0a30	0.009584948
93	0xbe4b578f	-0.1985762
94	0x3d0fdb04	0.03512098
95	0xbe742cab	-0.23845164
96	0x3bb448b6	0.005501832
97	0x3e3cba50	0.18430448
98	0xbe176654	-0.14785129
99	0xbe07b8d4	-0.132541
100	0xbd3452e8	-0.044024378
101	0xbe932a09	-0.28743008
102	0xbe124252	-0.14283112
103	0xbe9030c9	-0.2816222
104	0xbd087ee4	-0.033324137
105	0x3e278d6c	0.16362542
106	0xbe96e502	-0.29471594
107	0xbc213445	-0.009839122
108	0xbe5c845b	-0.21534865
109	0x3e85dd06	0.2614519
110	0xbe5bea6a	-0.2147614
111	0x3e866b72	0.2625385
112	0xbe5c62ae	-0.21522018
113	0x3e7661b7	0.24060713
114	0x3e2cf6d0	0.16891026
115	0x3e83ba64	0.25728142
116	0xbe8f30db	-0.2796696
117	0x3e955f28	0.2917416
118	0x3e0cd1da	0.13751927
119	0x3e9ba8e4	0.3040229
120	0x3db50d2c	0.08840403
121	0x3e1e0c8e	0.15434477
122	0x3e1128f0	0.14175773
123	0x3dc92824	0.09822109
124	0xbe72dd68	-0.23717272
125	0x3e6d9c8e	0.23204252
126	0x3e9708a0	0.29498768
127	0xbda7a7b2	-0.08186282
128	0xbe3e08fe	-0.18558118
129	0x3e84f99d	0.2597169
130	0x3dffcf8a	0.12490757
131	0xbe5560b7	-0.20837675
132	0x3e4b3e20	0.19847918
133	0x3e3a96aa	0.18221536
134	0x3d773230	0.060350597
135	0xbd4527cd	-0.04813366
136	0xbd949a72	-0.072560206
137	0xbcad7b1e	-0.02117687
138	0xbda78dd7	-0.08181351
139	0xbcc24d71	-0.023718568
140	0x3e7fff49	0.24999727
141	0xbdbb0510	-0.09131825
142	0x3e0397ec	0.12850922
143	0x3e7a4460	0.24440145
144	0xbe8725ab	-0.26395926
145	0xbe5959e4	-0.21225697
146	0xbc386ef5	-0.011256923
147	0xbe700f58	-0.23443353
148	0xbe1e1654	-0.15438205
149	0xbe63011d	-0.22168393
150	0x3eac8ad9	0.33699682
151	0x3bea2546	0.0071455566
152	0xbe030c7e	-0.12797734
153	0xbd0da757	-0.034583416
154	0x3de0d9e0	0.10979056
155	0x3e10286e	0.14077923
156	0xbe5645c0	-0.20925045
157	0xbe5e7d02	-0.21727374
158	0xbe3e6d34	-0.18596345
159	0xbd74b670	-0.0597443
160	0xbd893eaa	-0.06701405
161	0x3c7b1fc0	0.015327394
162	0xbe25649e	-0.16151664
163	0x3e0ae4ca	0.13563839
164	0x3e3997ac	0.18124264
165	0xbe79d292	-0.24396732
166	0xbe79ea99	-0.24405898
167	0x3d93845c	0.0720298
168	0xbe57cf74	-0.21075231
169	0x3e6a0368	0.22852862
170	0xbd976cad	-0.07393775
171	0x3e748fde	0.23883006
172	0xbe802c12	-0.25033623
173	0x3e8490a0	0.2589159
174	0xbb880923	-0.00415148
175	0x3e46545d	0.1936812
176	0xbe301ecb	-0.17199247
177	0x3e6f47d0	0.23367238
178	0x3e8ceb6e	0.2752337
179	0xbe21fe54	-0.15819675
180	0x3e50c318	0.20386922
181	0xbd5eb95b	-0.054375987
182	0x3c9a90b4	0.018867828
183	0x3e1e84d1	0.15480353
184	0x3dbf1b5c	0.0933139
185	0x3e18ee0b	0.14934556
186	0xbdb4b6cb	-0.088239275
187	0xbe99b7d8	-0.30023074
188	0xbe4b9764	-0.1988197
189	0x3e24180c	0.16024798
190	0x3d8f1936	0.069872305
191	0x3dece739	0.1156754
192	0x3d87120f	0.06595241
193	0xbd177826	-0.036979817
194	0x3da16a8f	0.078816526
195	0x3e01bed3	0.1267045
196	0x3c4f4f33	0.01265316
197	0x3dac754d	0.08420811
198	0x3e8f8a2e	0.2803511
199	0xbda9e5f0	-0.0829581
200	0x3d6b7058	0.057480186
201	0x3dc7232d	0.09723506
202	0x3e0a078c	0.13479441
203	0x3e5b7eeb	0.21435134
204	0x3e794de2	0.24346116
205	0xbcb1f197	-0.021721644
206	0xbe84e32b	-0.25954565
207	0xbe82bd81	-0.25535205
208	0x3df60f4a	0.12014635
209	0x3e77bd5c	0.24193329
210	0x3e953898	0.2914474
211	0xbe1fe754	-0.15615588
212	0xbe883074	-0.26599467
213	0x3d8a07bd	0.06739757
214	0xbd4917e8	-0.049095064
215	0xbe40393a	-0.1877183
216	0xbdb3ea3c	-0.08784911
217	0x3c34ae18	0.011027835
218	0xbe83fa12	-0.25776726
219	0xbc6bf144	-0.014400784
220	0x3e2e8d56	0.17046103
221	0xbe790d8d	-0.24321575
222	0xbcddf610	-0.02709487
223	0x3e3857f0	0.18002295
224	0x3e8e548b	0.27798876
225	0x3c657738	0.014005475
226	0x3be733b5	0.0070557245
227	0x3e214c1c	0.1575169
228	0xbdbc3e4e	-0.09191571
229	0x3eae0964	0.3399154
230	0xbbdae565	-0.006680178
231	0xbdc437ca	-0.095809534
232	0x3e7c57a4	0.24642807
233	0xbe3355fe	-0.17513272
234	0xbe15dd32	-0.1463516
235	0x3c2433dc	0.01002213
236	0xbdfbb66e	-0.12290655
237	0xbd947628	-0.07249099
238	0x3e0addd7	0.13561188
239	0xbe3aa579	-0.18227185
240	0xbdc83cf3	-0.0977725
241	0x3e212114	0.15735275
242	0xbc7fdba0	-0.0156163275
243	0xbe68fa0c	-0.22751635
244	0x3e8e3ec8	0.27782273
245	0xbde0c956	-0.10975902
246	0xbe22dc76	-0.15904412
247	0x3dda76ed	0.106672145
248	0xbe73fc21	-0.23826648
249	0x3de18a74	0.11012736
250	0x3d088cfa	0.03333757
251	0xbe278a9e	-0.16361472
252	0x3e0e43ed	0.13893099
253	0x3c97bf50	0.018523842
254	0x3e4c36a0	0.19942713
255	0x3e5b110c	0.21393222

linear1.bias f4 [256]
0	0xbdbd7ff7	-0.09252923
1	0xbdb806c2	-0.08985664
2	0xbdd71d30	-0.10503614
3	0x3e105882	0.14096263
4	0x3e81db2e	0.25362533
5	0xbd962bcd	-0.07332573
6	0x3e8027d4	0.25030386
7	0x3c3de6cb	0.01159067
8	0x3e84851e	0.2588281
9	0xbe2afa16	-0.16696963
10	0x3e483646	0.19551954
11	0x3e22bda2	0.15892652
12	0xbbb23627	-0.0054385844
13	0x3e324f74	0.17413121
14	0xbe3523eb	-0.17689483
15	0x3e0b1a56	0.13584265
16	0xbc2b188a	-0.010442862
17	0xbd6d560c	-0.05794339
18	0x3d45bd39	0.04827616
19	0xbd093c27	-0.03350463
20	0x3e60ff8b	0.21972482
21	0x3ea5229c	0.32252967
22	0xbe2121a1	-0.15735485
23	0x3e7e8577	0.248556
24	0x3dd3ffce	0.10351525
25	0x3d16ef25	0.03684916
26	0xbdd3fa37	-0.10350459
27	0x3e12fca2	0.14354184
28	0xbe220c86	-0.1582509
29	0xbe5aaf13	-0.21355848
30	0x3e30c2e9	0.17261852
31	0xbdbeb8b4	-0.09312573
32	0x3da10736	0.078627035
33	0xbe332943	-0.17496209
34	0xbdd78445	-0.10523275
35	0x3db6e3aa	0.08930142
36	0x3d80682c	0.06269869
37	0x3e9bd49f	0.30435655
38	0x3cc2c5cf	0.023775963
39	0xbd8ea4e0	-0.06965041
40	0x3e257541	0.1615801
41	0xbc95643c	-0.018236272
42	0xbe48dc31	-0.19615246
43	0x3e7cd36d	0.24690028
44	0xbda25f92	-0.07928385
45	0xbe4e4316	-0.20142779
46	0x3eb45a2f	0.35225055
47	0x3e243d97	0.1603912
48	0xbc937a48	-0.018002644
49	0x3e659794	0.22421104
50	0x3c70d0b1	0.014698193
51	0xbddcd52b	-0.10782846
52	0x3c90cb5d	0.017675096
53	0x3e70ad83	0.2350369
54	0xbe4e8d66	-0.20171127
55	0x3ea671da	0.32508737
56	0xbe3f39a0	-0.18674326
57	0x3e09743f	0.1342325
58	0x3e681e36	0.22667775
59	0x3e47d952	0.19516495
60	0xbe61c4cf	-0.22047733
61	0xba6b4ed5	-0.00089762855
62	0x3d970f20	0.07375932
63	0x3e63bc2a	0.22239748
64	0xbde72057	-0.11285465
65	0xbe831507	-0.2560198
66	0xbe7af2c2	-0.24506667
67	0xbdc29000	-0.09500122
68	0xbd77fba0	-0.060542703
69	0x3e09af9f	0.134459
70	0x3e6f2267	0.23352967
71	0x3e53b023	0.2067266
72	0x3e92206e	0.28540367
73	0xbd9e2cb4	-0.0772337
74	0xbd03c655	-0.032171566
75	0x3e8ae88b	0.2713054
76	0x3e88b549	0.2670081
77	0x3e2517ae	0.16122314
78	0xbe00a55e	-0.12563083
79	0x3e558820	0.20852709
80	0x3e861497	0.26187584
81	0x3df719c1	0.12065459
82	0xbe80e21d	-0.2517251
83	0x3e11985a	0.14218274
84	0x3d883f72	0.06652726
85	0xbe1c67d8	-0.15273988
86	0x3e93d018	0.288697
87	0x3ebe671d	0.37188044
88	0xbe7d5083	-0.24737744
89	0xbd5482aa	-0.051882423
90	0xbd360621	-0.04443944
91	0x3e3d4145	0.1848193
92	0x3e7118b8	0.23544586
93	0x3dd1b443	0.1023946
94	0x3e6f689b	0.23379748
95	0xbe6fa7b2	-0.23403814
96	0xbe4f1431	-0.20222546
97	0xbce33807	-0.027736677
98	0xbe3fa93a	-0.18716899
99	0x3e29be45	0.16576488
100	0xbdc0dd6f	-0.09417235
101	0xbe601973	-0.21884708
102	0x3d214d1a	0.03938017
103	0xbd20749b	-0.039173704
104	0x3e8d48ea	0.27594692
105	0xbe84c45a	-0.25931054
106	0x3ce55362	0.027993862
107	0x3e318dd0	0.17339253
108	0xbe18245b	-0.14857619
109	0x3e64774c	0.22311133
110	0x3c13581a	0.008993173
111	0x3e939135	0.28821722
112	0xbe701f4d	-0.2344944
113	0xbe12b9a9	-0.14328636
114	0xbe85c807	-0.2612917
115	0xbe52daca	-0.20591274
116	0x3e8f6de9	0.28013542
117	0x3d7298db	0.059227806
118	0x3e140f08	0.14458859
119	0x3e7886ce	0.24270174
120	0xbdad4515	-0.08460442
121	0xbbef07f8	-0.007294651
122	0x3bc3e7a9	0.005978544
123	0xbda33e8b	-0.079709135
124	0xbd54ecc1	-0.0519836
125	0xbe243cf8	-0.16038883
126	0x3e0959f7	0.13413225
127	0xbe6e221c	-0.23255199
128	0x3e3c899d	0.1841187
129	0xbdf489ab	-0.119403206
130	0x3e67f51b	0.22652094
131	0x3e55585a	0.20834485
132	0x3bb09c7c	0.005389748
133	0x3ccc7740	0.024959207
134	0xbe62b676	-0.22139916
135	0xbcb88955	-0.022526423
136	0x3e8b1b20	0.27169132
137	0xbe540cf8	-0.20708072
138	0xbe42a9f1	-0.1901014
139	0x3dd8cc6b	0.10585865
140	0x3e485012	0.19561794
141	0x3c34461a	0.011003042
142	0xbe94a5c9	-0.29032734
143	0x3e11a57e	0.14223287
144	0x3e446160	0.1917777
145	0xbd91a476	-0.071114466
146	0xbdb3e81c	-0.08784506
147	0xbe4d5b66	-0.20054397
148	0x3e85897a	0.2608145
149	0x3dd2fa6b	0.1030167
150	0xbe95018b	-0.2910274
151	0x3e2d8707	0.1694604
152	0xbe832918	-0.2561729
153	0x3e37eb5c	0.17960876
154	0x3e4c3963	0.19943766
155	0x3c9d0822	0.019168917
156	0x3db66cc0	0.08907461
157	0xbe8b047a	-0.27151853
158	0xbe7f69f2	-0.24942759
159	0xbd46455a	-0.048405983
160	0xbe0a6e57	-0.13518654
161	0xbe3cce52	-0.1843808
162	0xbe3d1d6e	-0.18468258
163	0xbe407047	-0.1879283
164	0xbdcf51bc	-0.101230115
165	0xbe6bd1e7	-0.2302929
166	0xbe4ad520	-0.19807863
167	0xbdbf852a	-0.09351571
168	0x3e231089	0.15924276
169	0xbd3b3ee9	-0.045714293
170	0x3e8ef0e5	0.27918163
171	0xbe122006	-0.14270028
172	0x3e4f0fad	0.20220824
173	0x3e8b2fbb	0.27184853
174	0x3ec0e9ab	0.37678275
175	0xbe205371	-0.1565683
176	0x3e578e31	0.21050335
177	0xba3095fe	-0.0006736218
178	0xbe970994	-0.29499495
179	0x3e67f483	0.22651868
180	0xbd769487	-0.06020024
181	0xbe869153	-0.2628275
182	0x3e4c4620	0.19948626
183	0xbe0b176d	-0.13583155
184	0xbd82a4ed	-0.06379113
185	0xbdec5206	-0.11539082
186	0x3ea53331	0.32265618
187	0xbe893ab2	-0.26802593
188	0xbdb9943d	-0.09061477
189	0x3c96bde7	0.0184011
190	0xbe42a2be	-0.19007394
191	0xbe9c9ea7	-0.30589792
192	0x3e84fc49	0.25973728
193	0x3e8a8e7a	0.27061826
194	0xbdcb9e68	-0.09942323
195	0x3cd910f6	0.026497345
196	0xbe3a342d	-0.18183966
197	0x3e9c5ac6	0.30538005
198	0xbe408114	-0.1879924
199	0x3c4c3f40	0.012466252
200	0x3d5fca59	0.054636333
201	0x3e62da1e	0.22153518
202	0xbe26f00f	-0.16302513
203	0xbd15d230	-0.036577404
204	0xbde3c7e6	-0.11122112
205	0xbddeb60f	-0.10874569
206	0x3c7d70c6	0.015468782
207	0xbe2a68e4	-0.16641575
208	0xbd07f8e7	-0.033196356
209	0x3e1857b2	0.14877203
210	0xbdaf87dd	-0.08570836
211	0x3de3b9e0	0.11119437
212	0x3e60aea0	0.21941614
213	0xbe93542b	-0.28775153
214	0x3e3beabf	0.18351267
215	0x3e27424d	0.16333885
216	0xbe361d30	-0.17784572
217	0x3e7770d7	0.24164139
218	0x3d439c34	0.04775639
219	0x3ea54aeb	0.3228372
220	0xbde3bbd2	-0.11119808
221	0x3e46c96b	0.19412772
222	0xbdb44d84	-0.088038474
223	0x3d5096b5	0.050924975
224	0x3e119e3a	0.14220515
225	0x3d1d6d2d	0.038434196
226	0xbd4834ac	-0.048878357
227	0x3ec00838	0.3750627
228	0xbd0d3b11	-0.03448016
229	0xbe71809a	-0.23584214
230	0xbe03d6de	-0.12874934
231	0x3c36109f	0.011112361
232	0xbe24d87a	-0.16098204
233	0x3e827bd4	0.25485098
234	0x3d7e65c9	0.06210879
235	0x3e8c385e	0.27386755
236	0x3e3397c4	0.17538363
237	0x3d0c892a	0.034310497
238	0xbdb7412f	-0.0894798
239	0x3d80f850	0.06297362
240	0x3e899e87	0.2687876
241	0x3e20600f	0.15661643
242	0xbe0da299	-0.13831557
243	0xbe8c5983	-0.27412042
244	0x3e76837b	0.24073593
245	0xbe6c9cfc	-0.2310676
246	0x3e1663d0	0.14686513
247	0x3e4308a6	0.19046268
248	0x3dce5364	0.10074499
249	0x3e93affe	0.2884521
250	0x3e2f3193	0.17108755
251	0xbde493f3	-0.111610316
252	0x3d2b15fd	0.041769017
253	0xbe6cbc10	-0.23118615
254	0xbe306db2	-0.17229345
255	0xbe894b8a	-0.26815444

linear2.weight f4 [3, 256]
0	0xbcef1f3b	-0.029189697
1	0x3d3e4932	0.046456523
2	0xbd8b90fb	-0.06814762
3	0xbd90bdb6	-0.070674345
4	0xbd914e79	-0.070950456
5	0xbd850aea	-0.06496222
6	0x3d465db3	0.048429202
7	0xbe00b4e4	-0.12569004
8	0xbd246918	-0.040139288
9	0x3cf62181	0.030045273
10	0xbd948a2f	-0.07252919
11	0xbc997df7	-0.018736823
12	0xbb9d3fe3	-0.0047988757
13	0xbccebacb	-0.025235554
14	0x3d4b68b0	0.049660385
15	0x3c1a1bdc	0.009406056
16	0xbd821688	-0.06351954
17	0xbda82cb1	-0.08211649
18	0xbd829f83	-0.06378081
19	0x3d15923f	0.036516424
20	0xbdab19a0	-0.08354497
21	0xbcb7c04a	-0.022430558
22	0xbcdd8140	-0.02703917
23	0xbc9288ea	-0.017887551
24	0xbc8faab5	-0.017537454
25	0xbd789ce9	-0.060696516
26	0xbd1affb3	-0.03784151
27	0xbe05f2b4	-0.13080865
28	0xbd0224ae	-0.03177326
29	0x3b61aac6	0.0034434064
30	0x3d4911a3	0.049089085
31	0xbda5c6d1	-0.08094562
32	0xbd6b8ea0	-0.057509065
33	0x3c1b0b11	0.009463088
34	0x3c81e3a6	0.015855622
35	0xbdfc319e	-0.12314151
36	0x3ca796ed	0.02045771
37	0xbbbf62a6	-0.005840617
38	0xbc0d9e51	-0.008643703
39	0xbd1880cf	-0.037232216
40	0xbd15fb96	-0.036616884
41	0xbd97f9b7	-0.07420676
42	0x3cc245df	0.023714958
43	0xbdcb8dae	-0.09939133
44	0xbd0610bf	-0.032730814
45	0x3c9c9901	0.019115927
46	0xbe06de15	-0.13170655
47	0xbca3b9c7	-0.019986046
48	0xbd7fb452	-0.062427826
49	0xbcaea3d9	-0.021318363
50	0xbd6b18a6	-0.057396553
51	0xbd5fd41f	-0.054645654
52	0xbd6b0f09	-0.057387386
53	0xbc9b43ac	-0.018953167
54	0xbc9dfd08	-0.019285694
55	0xbca54b13	-0.0201774
56	0x3c4f7ad5	0.012663563
57	0xbb84fcc4	-0.0040584523
58	0x3d1589bd	0.03650831
59	0x3be6a839	0.0070390967
60	0xbd56825c	-0.052370414
61	0xbcbac9da	-0.022801328
62	0xbbcc391c	-0.006232394
63	0xbdd24778	-0.10267538
64	0x3cba6177	0.022751553
65	0xbd94b808	-0.07261664
66	0xbcf169b8	-0.029469356
67	0x3ccad0f8	0.024757847
68	0x3bd243e3	0.006416784
69	0xbdb7f051	-0.089813836
70	0xbd94410b	-0.072389685
71	0xbd4e269f	-0.0503298
72	0xbdb8f2b1	-0.09030665
73	0xbcfdde59	-0.030989813
74	0xbadb091e	-0.0016711091
75	0xbcda67f3	-0.026660895
76	0xbc39703b	-0.011318262
77	0xbdb227c7	-0.08698993
78	0xbd6f2547	-0.05838516
79	0xbd8c21b2	-0.06842364
80	0xbd7681a5	-0.060182232
81	0xbcf5d9eb	-0.030011138
82	0x3bee6eda	0.007276398
83	0xbd7a0d8f	-0.061048087
84	0xbc81bafe	-0.015836235
85	0x3a6cd062	0.0009033737
86	0xbe0f9796	-0.14022669
87	0xbdacbbaf	-0.08434235
88	0x3cc66b63	0.024221128
89	0xbda05adc	-0.0782983
90	0xbbe605e1	-0.007019744
91	0xbca6fdd9	-0.020384716
92	0xbd9f8a53	-0.07790055
93	0x3c35c7ee	0.01109503
94	0xbcf31430	-0.029672712
95	0xbd03ecb7	-0.03220817
96	0x3c8c6090	0.017135888
97	0x3d39b256	0.04533609
98	0xbbcbd0e4	-0.00621997
99	0x3d64190c	0.05568795
100	0xbd940667	-0.07227784
101	0xbddbc861	-0.107315786
102	0xbded406c	-0.11584553
103	0xbdb84df3	-0.08999243
104	0xbdfc3c33	-0.123161696
105	0xbc0d99f8	-0.008642666
106	0x3d922aa0	0.07137036
107	0xbbf8c06b	-0.0075912974
108	0x3b7ca271	0.003854897
109	0xbd817050	-0.0632025
110	0x3c86efe9	0.01647182
111	0xbdaff21e	-0.08591102
112	0xb990dff8	-0.0002763269
113	0x3cec0b0e	0.028813865
114	0xbd3135cf	-0.043264206
115	0xbc4a29da	-0.01233908
116	0x3d250e96	0.040297113
117	0x3c5fefce	0.013668014
118	0x3c857f58	0.016296074
119	0xbcde5fca	-0.027145285
120	0xbc1c9d50	-0.009558991
121	0xbd2358f2	-0.039879747
122	0xbdf07ea3	-0.11742904
123	0xbd8d4988	-0.068987906
124	0xbc94b48d	-0.0181525
125	0xbd25af8e	-0.040450625
126	0xbd6d9529	-0.05800358
127	0x3d28be55	0.04119714
128	0xbc1e2a81	-0.009653688
129	0xbda9928c	-0.08279905
130	0x3ad80d5c	0.0016483474
131	0x3ca56556	0.020189922
132	0xbda37687	-0.07981592
133	0xbc8145d0	-0.01578036
134	0xbcdaec42	-0.026723985
135	0xbb88a06f	-0.004169516
136	0xbda47392	-0.08029856
137	0x3afa9500	0.0019117892
138	0xbdad32b9	-0.0845694
139	0xbd356db7	-0.044294085
140	0x3cfb0664	0.030642696
141	0xbd123602	-0.035696037
142	0xbd32f8de	-0.04369437
143	0xbdf1e3ae	-0.118110046
144	0x3cda4cf4	0.026648022
145	0xbc96be09	-0.018401163
146	0xbcae22a6	-0.021256756
147	0xb9acff81	-0.00032996762
148	0xbdbca746	-0.092115924
149	0xbb420afb	-0.0029608596
150	0x3caf8fb0	0.02143082
151	0xbd8ed57d	-0.069743134
152	0xbd6fd79c	-0.05855523
153	0xbd3cecaa	-0.046124138
154	0xbd3720ee	-0.04470914
155	0xbceb8a2e	-0.028752413
156	0x3c70c574	0.014695514
157	0xbd5480cc	-0.051880643
158	0xbd2233d4	-0.03960021
159	0x3cf977af	0.030452577
160	0x3d359ef3	0.04434104
161	0xbce42275	-0.027848462
162	0x3ca684f0	0.020327061
163	0x3d44a87e	0.04801225
164	0xbc7bdf92	-0.015373128
165	0x3d0a3450	0.033741295
166	0xbda2dc37	-0.07952159
167	0xbd3ab768	-0.045585066
168	0xbd946799	-0.07246322
169	0xbc4230fc	-0.011852499
170	0xbcd6a380	-0.02620101
171	0xbd391477	-0.045185532
172	0x3cd6c72d	0.026218021
173	0xbc0cfb69	-0.008604863
174	0xbdce96f5	-0.100873865
175	0x3bcdbb92	0.0062784636
176	0x3a6fdb19	0.00091497746
177	0xbda2cd73	-0.079493426
178	0x3d2c92b0	0.04213208
179	0xbdb14e6b	-0.08657535
180	0x3be84eaf	0.007089458
181	0xbc9a2175	-0.018814782
182	0x3c8fb4c1	0.017542245
183	0xbd774579	-0.06036899
184	0xbb6b8ff0	-0.0035943948
185	0x3ce94bfe	0.028478619
186	0xbdcf2893	-0.10115161
187	0xbcdcf097	-0.02697019
188	0xbcb0a0f3	-0.021561122
189	0x3b6ee400	0.0036451817
190	0x3dca6733	0.09882965
191	0x3b4d5e01	0.0031336548
192	0xbd844256	-0.06457965
193	0xbd5f2796	-0.05448111
194	0xbca0ae0b	-0.01961424
195	0xbd145f10	-0.03622347
196	0xbc92f6a4	-0.017939873
197	0xbd179acd	-0.037012864
198	0xbca812dc	-0.020516805
199	0xbd93ec90	-0.07222855
200	0xbd30e615	-0.043188173
201	0xbd9292e6	-0.07156925
202	0xbc85868c	-0.016299509
203	0x3c5834a9	0.013196149
204	0xbddb0f35	-0.1069626
205	0xbcc33277	-0.023827774
206	0xbd447004	-0.04795839
207	0xbd1a5a34	-0.03768368
208	0xbbc0b154	-0.005880514
209	0x3ccbe37a	0.024888743
210	0x3c443255	0.011974891
211	0xbccd858d	-0.025088096
212	0x3c828cf5	0.015936354
213	0xbadee6c2	-0.0017006027
214	0xbdbb6a18	-0.09151095
215	0xbd05aae9	-0.032633696
216	0x3d08a366	0.033358954
217	0x3b8de1bc	0.004329888
218	0x3c7783e4	0.015107129
219	0x3c6cf918	0.014463685
220	0xbd9eb68b	-0.07749661
221	0xbcf7e7a7	-0.030261828
222	0x3cde5d56	0.027144115
223	0x3cfa534c	0.030557297
224	0xbdcafd8e	-0.09911643
225	0xbc531cde	-0.0128853
226	0xbc329dc7	-0.010901875
227	0xbd7fd057	-0.062454548
228	0xbd5b02c1	-0.053469423
229	0x3c25641a	0.010094667
230	0xbce5ae1a	-0.02803712
231	0xbe072aa6	-0.13199863
232	0x3c9afaf1	0.018918486
233	0xbdb52f2c	-0.08846888
234	0xba48cd08	-0.00076599466
235	0xbd1f079d	-0.03882562
236	0xbdf87c46	-0.12133078
237	0xbc737f01	-0.014861823
238	0xbd73e05f	-0.05954015
239	0xbda67f27	-0.08129721
240	0xbdcb5e3e	-0.09930085
241	0x3b993f5f	0.004676744
242	0xbb2285f5	-0.0024799083
243	0xbc8df166	-0.017327022
244	0x3d39649a	0.045261957
245	0xbd6894aa	-0.056782402
246	0xbcbce7be	-0.023059722
247	0x3c47cc0a	0.012194643
248	0xbd9237c2	-0.07139541
249	0xbd0deab2	-0.03464765
250	0xbc4ec75e	-0.012620775
251	0xbd1c15a1	-0.038106564
252	0xbccabc8a	-0.024748106
253	0xbcf3a69e	-0.029742535
254	0x3d87a7f3	0.06623831
255	0x3c95b03f	0.018272517

linear2.bias f4 [3]
0	0xbc527244	-0.012844626
1	0xbc19df72	-0.009391652
2	0xbcc698e8	-0.024242833
