model/model.pth (torch, 16799 bytes, 4 tensors)

linear1.weight f4 [256, 11]
000000 d7 2b 21 be 54 72 71 3e 30 20 40 bd f0 4c e5 bc
       -0.1573938 0.23578769 -0.046905696 -0.027990788
000010 d4 bb 58 3e 0a da 1a bd 61 7a 01 be 9e 5d 85 3d
       0.211654 -0.037805595 -0.1264434 0.06511997
000020 26 c9 3c 3c 17 25 94 3e fb d5 9c 3d d0 0c 36 3d
       0.011522567 0.28934547 0.07658001 0.044445813
000030 88 db bb 3d f0 45 53 be ca ed 8e 3d 9d cc 8e 3e
       0.09172732 -0.20632148 0.069789484 0.27890483
000040 5c 9e 0a 3e 52 f5 42 3c 24 0a 66 3e 7f 13 be be
       0.13536972 0.011899309 0.22464806 -0.3712425
000050 5b 2a d0 3e af 2c 45 3e 28 bf 65 be 06 a9 09 be
       0.40657315 0.19255327 -0.22436202 -0.13443384
000060 68 21 36 be 4b be 67 bd 92 b4 56 3e 1a da 99 3e
       -0.17786181 -0.056577962 0.2096732 0.3004921
000070 0f ff 0c 3e 82 e1 f2 bd 75 0d 78 be d1 9d 8a bd
       0.13769172 -0.118594185 -0.24223883 -0.06768382
000080 8e 76 00 3e 63 7f 4c be 48 bb 1c 3e 82 36 6a be
       0.12545225 -0.19970469 0.15305817 -0.22872356
000090 22 b7 94 3e c3 c0 81 bd 9a 0d 86 be c0 ef bd 3c
       0.2904597 -0.063355945 -0.26182252 0.02318561
0000a0 fd 94 6c be de ef ae 3e 43 3e a1 be f2 da ed 3d
       -0.2310371 0.3416738 -0.31492814 0.11614026
0000b0 a4 90 a9 3d 92 cb d7 bd b0 9d 79 3e d2 5e 03 be
       0.08279541 -0.10536875 0.2437656 -0.1282914
0000c0 a5 de af 3d 61 9c 9a 3e 53 fa 28 be da 71 75 3e
       0.08587388 0.30197433 -0.16501741 0.23969212
0000d0 18 32 e4 bc 31 04 02 3f bf f9 b1 be e0 2e 33 3c
       -0.027855918 0.50787646 -0.34760854 0.010936469
0000e0 58 b8 7d 3e 02 24 85 3e 10 90 f6 bc 1e 9d 80 be
       0.24777353 0.26004034 -0.030097991 -0.2511987
0000f0 30 eb 05 be 2f 22 0d 3e 63 0f 13 be 00 ff e5 bd
       -0.13077998 0.13782571 -0.14361338 -0.11230278
000100 c1 da 55 be 19 86 3f be 92 46 cf bd e0 d4 54 bd
       -0.20884229 -0.18703498 -0.10120882 -0.051960826
000110 e3 29 41 be 6a 77 15 3e 4e 67 a3 3e 09 76 cf 3d
       -0.18863635 0.14596334 0.31914753 0.10129935
000120 b2 b1 8f 38 2c 24 d1 3e 68 89 da bd f5 37 32 3e
       6.85187e-05 0.4084791 -0.106707394 0.17404158
000130 e4 d8 3a be 4a 85 8b be 18 ed 94 bd 8b 5a 7f be
       -0.182468 -0.2725013 -0.072717845 -0.24936883
000140 80 41 4b 3e ec 08 ae 3e 8a 1d 84 bd 68 f4 66 bd
       0.19849205 0.33991182 -0.06450947 -0.056385428
000150 78 18 f8 3c 16 87 90 be 45 a4 fc 3e d7 9c 3c 3e
       0.030285105 -0.28228062 0.49344078 0.18419205
000160 40 2f 1b be 20 60 f6 bd 9a a4 17 3e e4 92 ee bd
       -0.15154743 -0.12030053 0.14808884 -0.11649111
000170 f9 47 39 3e bd b0 d2 3e a6 48 15 3d 8e 6f 82 3e
       0.18093862 0.41150466 0.036446236 0.25475734
000180 9f 84 10 be 3c 98 0d 3e 0f 7f a0 be 3e 94 65 be
       -0.14113091 0.13827604 -0.31346938 -0.22419831
000190 10 7d fd bd ec 78 bc 3d 9a 42 35 3e c9 90 6a bc
       -0.123773694 0.092027515 0.17701188 -0.014316746
0001a0 b9 80 b8 bd 7e 6c 04 3e ce d6 7c 3e fa 8d 47 3c
       -0.09008927 0.12932011 0.24691316 0.012179846
0001b0 c6 0b aa 3a 4d 65 a3 3d 98 47 c0 3d 60 cb a8 3d
       0.001297348 0.07978306 0.093886554 0.08241916
0001c0 70 15 4d 3e de 8f 6f 3e b8 9a 3a be ad 35 ad be
       0.20027709 0.23394725 -0.18223083 -0.33830014
0001d0 54 5f 39 3e 10 b2 ac 3c bf 5a 2c 3e 3e 81 01 bf
       0.18102771 0.021081 0.16831492 -0.5058783
0001e0 f2 bb 93 be 78 55 90 3d 9e 4f 14 3e 26 11 10 3e
       -0.28854328 0.07047552 0.14483497 0.14069042
0001f0 f3 d1 6c 3e ce b5 65 be d8 05 01 bd e0 76 0e be
       0.23126964 -0.22432634 -0.031499714 -0.13912535
000200 cd 24 03 bd 77 42 8f 3e 81 b0 5a bc 08 d7 a3 be
       -0.032017518 0.27980396 -0.013347746 -0.31999993
000210 40 33 b2 3b a0 51 37 bc dc 62 5f bd a3 c8 69 be
       0.0054382384 -0.0111888945 -0.05453764 -0.22830443
000220 f8 b4 6e bd 2c 24 9a be ce fe 36 be 06 3e 37 be
       -0.058278054 -0.30105722 -0.17870638 -0.17894754
000230 06 f6 13 3e fc d1 ab bd 24 fe 94 be f5 c5 1f be
       0.14449319 -0.08389661 -0.29100144 -0.15602858
000240 00 07 00 bb 3a 72 78 be b1 46 1c be 1e 22 84 be
       -0.0019535422 -0.24262324 -0.15261342 -0.2580728
000250 aa a4 24 be 4b e9 0f be 7d db dc bd 90 a5 76 3e
       -0.1607844 -0.14053838 -0.107840516 0.24086595
000260 b6 22 5f be 0b 0b 1a 3e 9c e8 02 3e 8c 68 5e 3e
       -0.21790585 0.15043275 0.12784046 0.21719569
000270 30 05 46 3d 74 2f 2f 3e f2 19 50 3e ec 8b 9a 3d
       0.04834479 0.17107946 0.20322397 0.07546219
000280 5f 13 bd bc bb 55 aa 3e 25 6c 63 be 4f 6e 98 3e
       -0.023080526 0.33268532 -0.22209223 0.2977166
000290 91 21 d4 bc 6c 1d e7 3d 00 a7 e3 3c 30 e9 04 bd
       -0.025894912 0.11284909 0.027789593 -0.032448947
0002a0 5c 43 36 3e 7a 40 81 3e a5 bb 88 be ac 52 6d 3e
       0.17799133 0.25244504 -0.2670566 0.23176068
0002b0 49 ee 03 be f7 47 1c 3e 41 c6 0e 3d 3e 19 c0 3d
       -0.12883867 0.15261827 0.03485704 0.093798146
0002c0 48 1f 37 3d b6 3c 3b 3e a4 b3 80 3e d8 68 89 be
       0.044707566 0.18284878 0.25137055 -0.26837802
0002d0 39 11 35 be b8 81 85 be 81 2a 7c bd 61 f9 bc bd
       -0.17682351 -0.2607553 -0.061563972 -0.09227253
0002e0 70 db 83 3c df 34 65 3e a8 44 5a be 8b a7 95 be
       0.016095847 0.2238345 -0.21315253 -0.29229388
0002f0 e0 36 11 3d e0 84 b3 3c 90 3c a2 3e d5 48 1a 3e
       0.035452724 0.021913946 0.3168683 0.15066846
000300 4f f6 61 be db 43 96 3e 04 00 0d 3e 9f ac 91 be
       -0.22066616 0.29348645 0.13769537 -0.28452012
000310 7e f3 ba be f1 96 e9 3d 37 eb 93 be b8 ee 1b be
       -0.36513895 0.11405743 -0.28890392 -0.15227783
000320 fe 33 8e be cd e6 82 be c1 db 87 be 2a 95 fe bc
       -0.27774042 -0.25566712 -0.26534846 -0.031076986
000330 97 5b 49 3e 05 9b 19 be e7 1b 56 be e4 a8 5f be
       0.19663845 -0.15000542 -0.20909081 -0.2184177
000340 28 c5 77 3e 30 0a 4d 3d b4 1f b9 bd 10 18 50 be
       0.24196303 0.050058544 -0.0903925 -0.20321679
000350 3e 54 3d 3e 26 ed df bd 60 cf 2b bc a8 00 3e 3e
       0.18489167 -0.10933904 -0.010486454 0.18554938
000360 c6 42 c2 bd 96 7c 1c be aa 1b 56 be 28 9c b1 3c
       -0.09485392 -0.15281901 -0.2090899 0.021680906
000370 68 21 6e 3e 00 f3 54 bc e0 50 ab bc cc 51 ce 3e
       0.23254931 -0.012997389 -0.020912588 0.4029678
000380 ab 3c 24 3e d0 e8 3f 3e 85 7c 60 3e 45 b3 bd 3e
       0.16038768 0.18741155 0.219225 0.37050834
000390 6a 85 0b be 16 78 01 3f 0e 59 ca bd 16 e1 cc bd
       -0.13625112 0.5057386 -0.09880267 -0.10003869
0003a0 58 f6 95 3e 74 c9 dd 3d 28 4d 68 bd 7e d3 3a 3e
       0.29289508 0.1082944 -0.056714207 0.1824474
0003b0 db 1f 69 be 53 94 6e be 9f e7 5a be b0 31 8e be
       -0.22766058 -0.23298769 -0.21377419 -0.27772284
0003c0 4e ee d8 3d ea 91 2a bd 5c 41 68 be 76 da 15 3e
       0.10592328 -0.04164306 -0.22681183 0.14634117
0003d0 90 98 98 3e 4a 59 bc 3e bd 3d 8e 3d 25 65 2c 3c
       0.29803896 0.36786872 0.069453694 0.010522162
0003e0 c6 b7 7f 3e b4 86 1d bc d4 3a 32 bc 51 52 91 be
       0.24972448 -0.009614635 -0.0108782835 -0.28383115
0003f0 41 7d 35 be 22 78 84 be 98 0e 8e be 60 4f 58 3d
       -0.17723562 -0.25872904 -0.2774551 0.052810073

linear1.bias f4 [256]
000000 98 47 df 3d 05 24 d0 3e 33 99 42 bc bd 6d 1b bb
       0.10902327 0.4065248 -0.011877346 -0.0023716532
000010 70 ba 7d 3e da 74 27 bd b9 96 f7 3d 68 58 b4 3e
       0.24778152 -0.040882923 0.12089295 0.352237
000020 c3 d7 07 3e 41 94 9d 3d b4 d6 41 3e 15 c0 45 be
       0.132659 0.07694293 0.18929559 -0.19311555
000030 1d f6 91 be 04 dc 7c 3e 78 c2 81 3e af 8f 51 bd
       -0.28508082 0.24693304 0.2534368 -0.051162418
000040 fa 6d a7 3c 6e 5e 2b bd d2 a7 d6 bc 62 37 55 be
       0.020438183 -0.041838102 -0.02620307 -0.20821908
000050 15 1b 9e 3e 63 3c 09 be 62 ea e5 3d 9e 08 06 bd
       0.30880037 -0.13401942 0.112263456 -0.03272306
000060 9b ca 2b be 21 d5 70 3e 81 85 86 be 8a 30 5e 3e
       -0.16776507 0.23518802 -0.2627373 0.21698204
000070 d9 7d ac 3e 8f 12 07 be b8 83 70 bd fe ff 6a 3d
       0.33689764 -0.13190673 -0.058719367 0.05737304
000080 96 72 3d 3e a9 33 fb 3d 25 83 11 be 7c 4b d1 3e
       0.18500742 0.12265713 -0.14210184 0.40877903
000090 b5 09 f0 3d e7 61 02 3e 6f a9 96 be 5c 3e 3a 3d
       0.117206015 0.1273266 -0.29426143 0.045469627
0000a0 7d 8a 8d 3d 08 e8 d6 3d a3 da 33 bd fa a9 27 3e
       0.0691118 0.10493475 -0.04390968 0.16373435
0000b0 33 a5 0c 3d 59 ee 23 3e 9f 4c 99 bd 45 54 92 3e
       0.034337234 0.16008891 -0.074853174 0.28579918
0000c0 f1 b8 d2 bb cc 09 09 3e 29 89 e6 3d ae 1a d2 3e
       -0.006430738 0.13382643 0.1125663 0.4103598
0000d0 9f 4c 6c bc 48 2d 99 be c8 18 7a be e8 86 26 be
       -0.014422565 -0.2991736 -0.24423516 -0.162624
0000e0 83 20 fa bd d5 1a 6f 3e c9 60 a4 be 92 b6 56 3e
       -0.12213232 0.2335008 -0.3210509 0.20968083
0000f0 b1 c7 cc 3d f1 bb 7e 3e e5 66 41 3e 27 26 b1 bd
       0.099990256 0.24876381 0.18886907 -0.08649855
000100 25 e8 2f be 92 5e 2b be 07 6d de bd 06 4b 9b 3d
       -0.171784 -0.16735294 -0.10860639 0.07582669
000110 88 2e 93 be e9 bf 7e 3e cb 32 12 bd 21 5c 56 3e
       -0.28746438 0.24877895 -0.03569297 0.20933582
000120 64 c5 91 be b5 13 44 3e ab 77 52 bd c7 7b d0 3b
       -0.2847091 0.19148143 -0.051383656 0.0063624117
000130 eb ab 70 3e b4 23 5e be 3a 8e d0 3e 39 46 56 bc
       0.23503082 -0.21693307 0.4073351 -0.013078266
000140 f5 46 1e 3d 3f 45 92 3e cf d0 9b be 26 4d 8e 3c
       0.03864189 0.28568456 -0.30432746 0.017370772
000150 76 36 36 3e f3 7a fc 3d 02 fe 23 be 05 92 ef bd
       0.17794213 0.12328138 -0.16014865 -0.11697773
000160 02 e6 aa bd 8a 8f b1 3e c2 ad 2d 3d 58 5f 29 bd
       -0.08344652 0.34679824 0.042402036 -0.041350693
000170 5b 4b 7f 3e 1a d2 22 3e 83 85 b0 3e 94 07 53 be
       0.2493109 0.1590046 0.3447686 -0.2060836
000180 9b 47 e7 bd 12 47 ba 3e 10 14 f2 bd f2 00 f6 3d
       -0.112929545 0.36382347 -0.11820233 0.12011899
000190 21 74 b5 bd e5 6c c5 bd d5 e5 56 be bc 36 bb bd
       -0.088600405 -0.096399106 -0.20986111 -0.09141299
0001a0 a6 7a 19 be 13 d1 a8 3e 8a 0e 07 be f3 27 68 3e
       -0.14988193 0.3297201 -0.1318914 0.2267149
0001b0 5a d5 7e bb 30 ac 41 be e2 3d ac bd 61 9e 2d 3e
       -0.0038884492 -0.1891334 -0.08410241 0.16954948
0001c0 20 93 46 3e c8 ce 82 3e c4 b3 83 3d 47 ff 97 3d
       0.19392061 0.25548387 0.06430772 0.07421737
0001d0 be 08 4e 3e c8 35 34 be f2 dc 3e 3e e7 49 06 3e
       0.20120522 -0.17598641 0.18638971 0.13114129
0001e0 88 7f 3d bd 0a 9c 46 bd 4c 99 e1 3e 8d 85 94 3e
       -0.0462642 -0.048488654 0.4406227 0.2900814
0001f0 09 d7 26 3e 8d b0 19 3e 0e b8 f4 bb 61 4e 44 be
       0.16292967 0.15008755 -0.00746823 -0.19170524
000200 d8 f3 96 3d 74 74 8c bc 7e 6a 37 3e f6 29 df 3e
       0.07370728 -0.017145373 0.17911717 0.435867
000210 d0 b5 0b be 48 ce a4 be c0 fb cb bd d9 e7 64 3e
       -0.13643575 -0.3218863 -0.09960127 0.22354068
000220 b2 a5 c8 3e 35 30 04 3e ad c7 d4 3e 6b fe 00 be
       0.39188915 0.12909015 0.4155859 -0.12597053
000230 b3 91 2e bd 3d ed d0 bb c8 5d 4a be 6f c1 87 bd
       -0.04261942 -0.0063759373 -0.19762337 -0.066286914
000240 7e 54 e7 3c f8 73 00 be 2e 33 73 3e f5 4f a7 3d
       0.028238531 -0.12544239 0.23749992 0.081695475
000250 c5 f4 47 3e 61 35 29 3a f1 19 0e be da 2c ac 3e
       0.19526966 0.00064547925 -0.13877083 0.3362797
000260 f1 b3 8f 3e f2 b0 71 be d6 25 c1 3e d9 be 5f 3e
       0.28066972 -0.23602656 0.3772418 0.21850146
000270 59 c8 b4 3b 09 f3 b2 bd 2d ff 6a 3e 52 78 c2 3e
       0.0055170474 -0.087377615 0.22948904 0.37982422
000280 8b 6c 02 be da 7e 1a be 8c 7f 5f 3e 68 57 8e 3e
       -0.12736718 -0.15087453 0.21825999 0.2780106
000290 3a 67 4b be e4 bf 11 3e ca 51 a8 be eb 0a 65 3e
       -0.19863597 0.14233357 -0.328749 0.22367446
0002a0 60 09 ed 3e 64 2d 4a be a7 15 b0 bd 15 2c 4d be
       0.46296215 -0.19743878 -0.0859788 -0.20036347
0002b0 e8 8f 66 be 33 d9 18 3e de a4 6f bd 6e ee 9a 3c
       -0.22515833 0.14926605 -0.05850684 0.01891252
0002c0 d0 92 15 3e 16 68 9b be 01 25 93 bd bd 85 cd 3e
       0.14606786 -0.3035285 -0.07184792 0.40141097
0002d0 ea d3 88 be 65 93 2b bd 0f 3b d0 3d bd 35 ca bd
       -0.26724178 -0.041888613 0.101675145 -0.09873531
0002e0 75 94 fd 3c 25 74 d6 3d 46 b7 96 3e b0 3f ea 3d
       0.030954579 0.104713716 0.29436702 0.11437929
0002f0 28 4a 0b be f0 b5 8a 3e 1b 08 88 be 50 0a 57 3e
       -0.13602507 0.27091932 -0.26568684 0.21000028
000300 c3 54 71 3e cc be 82 3d 2f b1 2a 3e b4 f3 71 3e
       0.2356749 0.06384048 0.16669153 0.23628122
000310 3d 0d 9a 3e 4a 19 a2 3e 3c 0e 0c be c7 3a 48 3d
       0.30088225 0.3165992 -0.13677305 0.04888418
000320 4b ad 8e 3d 5b 9c 7b 3e 1d 1f db 3e 96 20 d0 bb
       0.06966647 0.24571364 0.42797175 -0.006351541
000330 da 74 a2 3d 03 c1 6d 3e c7 1e 88 be 5d ef a5 bd
       0.07932444 0.2321816 -0.2658598 -0.081022955
000340 c4 d0 9a be e9 e5 58 3e 3a 6a 6b be e1 70 0b 3d
       -0.302374 0.21181454 -0.22989741 0.034043197
000350 d8 ff 0c be cd 91 14 be 76 78 81 3e b5 bd 01 3d
       -0.13769472 -0.14508744 0.25287217 0.03167506
000360 c2 18 78 3e d1 1b ad bd ac 2b 75 3d eb 70 c6 3c
       0.24228194 -0.08452571 0.059856102 0.024223765
000370 aa 6f d8 bd 79 ae 8a bd 62 21 bf bd 77 5f 67 be
       -0.10568173 -0.06771559 -0.09332539 -0.2259501
000380 95 96 93 be 59 3e ef 3d 1d 45 b6 3e 9c 9d a5 3d
       -0.28825822 0.11681814 0.35599604 0.08086702
000390 d3 20 23 be 5d 27 38 be f0 69 bb 3b 82 20 10 be
       -0.1593049 -0.17983766 0.005719416 -0.14074901
0003a0 9b 7c f5 3d 5b 57 8d 3e 72 79 07 be bc b6 73 bd
       0.11986657 0.2760571 -0.13229921 -0.05950044
0003b0 8e 18 ba bc 9c 17 37 bd 56 aa 22 be fd e4 0b 3e
       -0.022716787 -0.04470025 -0.1588529 0.13661571
0003c0 56 0f 91 be 73 cb 83 3e 51 62 26 3e 14 0e 9f 3e
       -0.28332013 0.25741157 0.16248442 0.31065428
0003d0 40 0c ea bd c6 47 de 3d d9 d3 bc 3d e5 d8 cf bd
       -0.11428118 0.108535334 0.09220094 -0.10148791
0003e0 4e 9f c2 3e 6a 07 92 3e 43 e8 ea 3d 21 5a a5 bd
       0.38012165 0.2852128 0.11470082 -0.08073831
0003f0 18 54 51 be 83 fe 81 3e 0c dd 01 3e f1 5e c9 3d
       -0.20442235 0.2538949 0.12681979 0.09832562

linear2.weight f4 [3, 256]
000000 ea 41 f0 bc c2 4f 0f be bc a7 cf bd de 94 3e bc
       -0.029328305 -0.13995269 -0.10139415 -0.011632172
000010 8c d7 91 bd 4d 4e bb 3c 22 9b 06 be eb a0 f7 bd
       -0.071211904 0.022864485 -0.13145116 -0.120912395
000020 ed ae 41 be d6 be 0c bd 54 4f 08 bd 58 36 04 bd
       -0.18914385 -0.034361683 -0.03327878 -0.03227839
000030 88 a8 c7 3c 9e c8 9f 3c da 11 2b be 68 60 bb bc
       0.024372354 0.019504841 -0.16706029 -0.022873119
000040 6d b3 b9 bc e0 f3 0b bc e2 ba 12 bc 58 67 f9 3c
       -0.022668565 -0.008542031 -0.008955689 0.030444786
000050 39 ba 3f be fb 27 38 3b c1 64 a9 bd a6 cf c9 3b
       -0.18723382 0.0028100002 -0.082711704 0.006158787
000060 4f ec da 3d 48 e0 db bd 76 a0 31 bd 76 c2 10 be
       0.106896035 -0.10736138 -0.043365918 -0.14136681
000070 16 9f 57 bd bb ff 78 bc 43 3f 18 be 5d 8f e1 bd
       -0.05264195 -0.01519769 -0.14867882 -0.110136725
000080 81 14 00 be 40 86 bd bd b0 1b 29 bd c9 c6 bb bd
       -0.12507822 -0.09254122 -0.04128617 -0.09168775
000090 e4 1d bb ba 43 50 b3 bd 4e 7d 11 bd 5a 43 c2 bd
       -0.0014275876 -0.08755543 -0.03551989 -0.094855025
0000a0 1c 4f e0 bd b4 8c 0e 3d f8 af 20 bd 79 bb fc bd
       -0.10952589 0.034802154 -0.039230317 -0.12340445
0000b0 b6 fe 44 be 79 3b a9 bd 93 f4 c8 3c 5d fe a1 bd
       -0.1923779 -0.08263297 0.024530685 -0.07909844
0000c0 44 1a 84 bd 7e 05 64 bd 0f 05 da bd 9c 04 9f bd
       -0.06450322 -0.0556693 -0.10645496 -0.07764551
0000d0 1f 8b 25 3c b5 e1 c5 3c ec c4 f6 bd f0 da 73 bd
       0.01010397 0.024155477 -0.120492786 -0.059534967
0000e0 c1 89 68 bc c2 ec 32 be ff 4e 9d bd 75 57 8c 3c
       -0.014192999 -0.17473128 -0.07681083 0.017131547
0000f0 93 95 23 be bf 36 ec bc 7d d7 cc bd 70 b5 94 bd
       -0.15975027 -0.028834699 -0.10002039 -0.07261169
000100 ec 50 36 bc cd cb 64 bd 51 a1 a9 bc f9 30 67 ba
       -0.011127692 -0.055858422 -0.020706804 -0.0008819248
000110 3c cc 8e 3c da 0a f3 bd 26 d1 8d bd 4b 16 72 bd
       0.01743137 -0.11867304 -0.069246575 -0.05910329
000120 76 b6 78 3d 72 5d d1 bd 55 7d 69 3c 34 3d 69 bd
       0.060720883 -0.102229014 0.014251073 -0.056943133
000130 c6 69 1e be 81 f1 4d bb b5 c7 39 be 3a 34 d4 3c
       -0.15470037 -0.0031424465 -0.18142588 0.02590381
000140 14 f3 5a bd f4 b7 5a bd 5c 28 3c 3c 25 e5 23 be
       -0.053454474 -0.053398088 0.011484232 -0.1600538
000150 39 8f ae bd c2 3a 61 bd 9e 36 51 bd 7f 0b 9d bd
       -0.08523411 -0.054987676 -0.051077478 -0.07668208
000160 af f4 57 bd 17 92 b5 bd f9 b7 1e be a1 3b 84 3c
       -0.052723583 -0.08865755 -0.15499867 0.016141715
000170 c1 ba 18 be 06 f6 4e bd 37 75 c4 bd c9 3b fa bc
       -0.14914991 -0.050527595 -0.095926695 -0.030546086
000180 e9 3e f6 3b 44 46 17 be f5 f0 ae 3d e1 e2 51 bc
       0.0075148237 -0.14772898 0.08542053 -0.01281044
000190 98 e6 0c be 09 f1 06 bd c3 c9 81 bd 92 23 40 bd
       -0.1375984 -0.032944713 -0.06337311 -0.046908922
0001a0 b6 a5 f2 bd 05 01 4a bc 72 93 bf bd 8e bd d5 bd
       -0.11848013 -0.012329345 -0.09354295 -0.10436545
0001b0 fd 6b 91 bd bd 09 23 3d 52 88 44 3d 83 b8 9e bd
       -0.07100675 0.03980421 0.047981568 -0.077500366
0001c0 68 f6 11 3c 60 59 87 bd 86 67 58 b9 13 59 49 bd
       0.0089088455 -0.06608844 -0.0002063793 -0.049157213
0001d0 5d f6 67 3d 80 a3 9d 3b 65 f3 04 be ee af ee bc
       0.056631435 0.0048107505 -0.12983473 -0.029136624
0001e0 a2 d3 78 bd 2f c1 6d bd dd 56 db bd 2e f9 5a bc
       -0.060748704 -0.058045562 -0.10709927 -0.013365073
0001f0 f6 91 7a bc e8 c1 d8 bc 00 df a7 bd c2 84 40 3b
       -0.015293589 -0.02645965 -0.08196831 0.0029376005
000200 f8 e2 07 3e 58 ca 55 bd c6 14 17 be b1 da f1 bd
       0.13270175 -0.052194923 -0.14754018 -0.1180929
000210 49 f7 f1 3d bc 97 95 3b b2 0a 12 3d cd 82 24 be
       0.11814744 0.0045652073 0.03565473 -0.16065522
000220 94 51 09 be 1e 86 03 be 26 94 3b be b1 5d 41 3d
       -0.13410026 -0.1284413 -0.18318233 0.04720849
000230 f9 af 5b bd 09 35 2c be ca c9 33 bd 39 16 0e bd
       -0.053634617 -0.16817106 -0.043893613 -0.034689162
000240 76 ad 19 be 4b 8a dc bd 36 df 1c be 29 02 3e bd
       -0.15007576 -0.10768565 -0.15319523 -0.04638878
000250 7c cf 6c bd 25 57 2a be 18 0e 0e be e2 da 04 be
       -0.05781506 -0.16634806 -0.13872564 -0.12974122
000260 41 a5 52 be 16 36 17 bd c7 00 e0 bd 06 d5 00 be
       -0.20570852 -0.036916815 -0.10937648 -0.12581262
000270 09 73 e5 3c e9 d3 f3 3c 5f df 46 be 25 57 f6 bd
       0.028008955 0.029764133 -0.19421147 -0.1202834
000280 75 b7 66 3d 23 a1 cf bd b9 9a 0a be 35 2f 3e bd
       0.056327302 -0.10138156 -0.13535585 -0.04643174
000290 5e c5 9b bc 40 45 b9 bd e2 c2 f5 3c e1 55 23 bd
       -0.01901501 -0.090464115 0.030000154 -0.039876822
0002a0 5e 83 e2 bd 92 79 ba bc ae 76 8d bd c4 b8 a9 bd
       -0.110602126 -0.022763047 -0.06907402 -0.08287194
0002b0 d9 a4 2a bb a4 19 31 3c 5b a7 8e bd d3 9e d4 3b
       -0.0026038198 0.010809336 -0.06965514 0.00648866
0002c0 5c ad 4b bd 1f a5 0f 3d a0 a2 90 bd 80 fa f6 bd
       -0.049725875 0.03506958 -0.07062268 -0.12059498
0002d0 c5 02 36 3d 8d d8 ac 3d ba 27 e1 3a 82 bc 04 be
       0.044436235 0.08439741 0.0017177977 -0.12962535
0002e0 52 1e 87 bc 01 40 b4 bd 62 8f 46 be 75 bb ef bd
       -0.01649395 -0.0880127 -0.19390634 -0.117056765
0002f0 79 e4 fb bd 7d f8 0c be 3c 8c b1 3c e1 e3 b1 bd
       -0.12299437 -0.13766666 0.021673314 -0.086860426
000300 0e 42 17 be 32 73 e3 3a 7b 58 8a bd 77 56 1d bd
       -0.14771292 0.0017353056 -0.067551576 -0.038412537
000310 57 08 7a bd 71 73 d3 bd 16 42 05 bd f6 cd 26 3d
       -0.06104311 -0.10324753 -0.032533728 0.040723763
000320 f0 d3 1c be 2e 7a 0f be de 38 cb bd 20 74 31 3e
       -0.15315223 -0.14011452 -0.09922956 0.17329454
000330 97 aa 21 be 41 12 aa bd 3f c0 5b bd d9 f6 87 bd
       -0.15787731 -0.08304263 -0.053650137 -0.06638879
000340 60 19 50 3c 63 3b 6a bd 53 bb 6b bd 90 48 24 be
       0.012701362 -0.05718554 -0.057551693 -0.16043305
000350 62 a3 4f bd dc 1a 70 bd c6 40 14 3d 6f d4 5c 3d
       -0.050692923 -0.058619365 0.036194585 0.05391353
000360 ca 20 8a bb e0 c5 dc bd 36 87 f0 bd da 50 0f bc
       -0.0042153345 -0.10779929 -0.117445394 -0.008747304
000370 08 8e f1 bc 8b 69 03 bd 95 46 06 be b9 c6 97 bd
       -0.029486671 -0.032083075 -0.13112862 -0.0741095
000380 70 65 54 3c d3 02 7f bd 52 7e 10 be 6d 26 aa bb
       0.012963638 -0.062258553 -0.14110687 -0.005192569
000390 0f e2 32 bd 9d 46 51 bd 20 45 d9 bd 90 0c 16 3d
       -0.043672618 -0.051092733 -0.10608888 0.036633074
0003a0 ed 2b 2b bc e9 d9 e6 bd 10 1f 89 bc 71 06 6a 3d
       -0.010447484 -0.11272032 -0.016738445 0.05713505
0003b0 e1 0e 33 bd 35 53 a7 bd 00 6a 0f be 03 e1 8b bd
       -0.04371536 -0.08170167 -0.1400528 -0.06830027
0003c0 20 20 67 bd 98 73 83 bd 9f 66 33 bd 46 ca 1f be
       -0.05642712 -0.06418532 -0.04379904 -0.15604505
0003d0 61 dd fe 3c 48 75 31 be b9 a3 1b bd 7a 47 ec 3c
       0.031111421 -0.17329895 -0.037997935 0.028842676
0003e0 8c 2c b5 bd 06 38 2d be 18 4f 0f bd e1 af 3f 3d
       -0.08846387 -0.16915902 -0.03498754 0.04679859
0003f0 00 43 e0 ba 3e 41 e3 bd 8d 87 8b bd e3 08 5e bd
       -0.0017109811 -0.11096428 -0.06812964 -0.054207694

linear2.bias f4 [3]
000000 56 20 0b be f1 0e 34 bd 99 a9 c1 bc
       -0.13586554 -0.04395956 -0.02364044
