model/model.pth (torch, 16799 bytes, 4 tensors)

linear1.weight f4 [256, 11]
00000000: d72b 21be 5472 713e 3020 40bd edc5 c6bc
00000010: 684d 1d3e 71c1 d63b cd05 f1bd 76d6 c13d
00000020: 29e0 4bbc b674 9a3e 57da 973c d00c 363d
00000030: 88db bb3d f045 53be d01a 693d 1ead 813e
00000040: 958e 0d3e a1d0 003d 3958 923e 88dd c8be
00000050: a789 bf3e e738 243e 28bf 65be 06a9 09be
00000060: 6821 36be 9e16 39be b3b4 7e3e 7e50 083f
00000070: 8ce3 6e3e 0335 49bd 6370 abbe 030c a5be
00000080: 6691 4e3e 637f 4cbe 48bb 1c3e 8236 6abe
00000090: 841f 8d3e 8472 2a3c 0733 88be c89d 183d
000000a0: 7e0d 80be c0ab b43e 6988 e8be be56 2f3e
000000b0: a490 a93d 92cb d7bd b09d 793e 19be ccbd
000000c0: 40b3 b13d afcd 933e 8f94 36be c8db c13e
000000d0: c681 dabd be40 003f 6b9f afbe e02e 333c
000000e0: 58b8 7d3e 0224 853e 1090 f6bc 1e9d 80be
000000f0: 30eb 05be 2f22 0d3e 630f 13be 00ff e5bd
00000100: c1da 55be 1986 3fbe 9246 cfbd e0d4 54bd
00000110: e329 41be 0321 2f3e b7bb 963e c7ee 1a3e
00000120: 9eb5 aa3c b06d 003f 5c5e ecbd ee0e 183e
00000130: 928b 3cbe 4a85 8bbe 18ed 94bd 8b5a 7fbe
00000140: 7c84 3b3e 1506 9e3e 42fe fdbc 97f1 25bd
00000150: 9d58 753d 9703 9ebe 98f4 e83e 5d5d 243e
00000160: 402f 1bbe 2060 f6bd 9aa4 173e 0944 3ebe
00000170: 18c4 283e e80a ca3e f9c1 5b3d 4cc7 b93e
00000180: e109 4cbe cf1b ae3d 73f8 92be 3e94 65be
00000190: 107d fdbd ec78 bc3d ca1a f03d d185 6bbd
000001a0: cba0 42bd 333b b03d 2e7a b13e 30d9 31bd
000001b0: a5c3 b2bd 613b bb3c 9847 c03d 60cb a83d
000001c0: 7015 4d3e 4c5e 593e a184 02be d107 cfbe
000001d0: 9f68 373e f847 d2bd 82da 4b3e 80fe 18bf
000001e0: 21f6 a0be 7855 903d 9e4f 143e 2611 103e
000001f0: 562f 953e bc03 83be a9d2 8cbd 8f9a d8bd
00000200: 3163 673b 723a b13e 24e6 bbbd 9f43 d2be
00000210: 4033 b23b a051 37bc dc62 5fbd a3c8 69be
00000220: f8b4 6ebd 2c24 9abe cefe 36be 063e 37be
00000230: 06f6 133e fcd1 abbd 24fe 94be f5c5 1fbe
00000240: 0007 00bb 3a72 78be f819 20be 3cc3 66be
00000250: 173d 47be f6fb 16be 3220 99be a017 7e3e
00000260: 271e d3be 9dd2 533e 9ce8 023e 8c68 5e3e
00000270: 3005 463d 7c33 133e 205b 423e 5769 833d
00000280: 539a 373c fddb d93e c5f0 7fbe 4b94 743e
00000290: 2091 9abd 6c1d e73d 00a7 e33c 30e9 04bd
000002a0: 66f6 3d3e 0cb9 6e3e a5bb 88be 9151 5e3e
000002b0: 1ea3 8cbe 7805 f63d a655 713d 059c 903d
000002c0: 481f 373d b63c 3b3e a4b3 803e 3b5b 6fbe
000002d0: b941 d3bd 3b92 d8be a53b 89bd a882 c9be
000002e0: 9475 c23c c40a c93e a844 5abe 8ba7 95be
000002f0: e036 113d e084 b33c fc0f 7f3e f516 443e
00000300: cfe2 debd b941 a23e 00e7 c33e 304f 9dbe
00000310: 6435 14bf 7450 c03d 37eb 93be b8ee 1bbe
00000320: fe33 8ebe bdf2 eebd 38cb acbe acd7 8bbe
00000330: 693d 653e 4d81 62bd e0cb 74be 954a f4bd
00000340: 712e 983e 300a 4d3d b41f b9bd 1018 50be
00000350: 3e54 3d3e 26ed dfbd 60cf 2bbc a800 3e3e
00000360: c642 c2bd 967c 1cbe aa1b 56be 289c b13c
00000370: 6821 6e3e 00f3 54bc e050 abbc 35c0 c43e
00000380: 81bb 163e 40ea 283e 6e22 6c3e 046e f03e
00000390: 4063 3fbe 74d3 eb3e 1381 08be 16e1 ccbd
000003a0: 58f6 953e 74c9 dd3d 7fd1 c2bb 7d85 953e
000003b0: db1f 69be 5394 6ebe f9b9 a3be 9abf c4be
000003c0: 65e2 f63d b90d db3d 5c41 68be 76da 153e
000003d0: 9098 983e 30cb ad3e 437d 0c3e 0fcc 5ebd
000003e0: 9103 843e 4b06 133d 48bd 2e3d 1b01 9dbe
000003f0: 1452 73be 2278 84be 980e 8ebe 604f 583d
-0.1573938 0.23578769 -0.046905696 -0.0242643 0.1536156 0.0065538217 -0.117686845 0.09464733
-0.012443581 0.30167168 0.01853673 0.044445813 0.09172732 -0.20632148 0.056910336 0.2532739
0.13823922 0.031448964 0.28582934 -0.39231515 0.37409708 0.16037332 -0.22436202 -0.13443384
-0.17786181 -0.18075034 0.24873619 0.5324782 0.2332899 -0.04912282 -0.33484182 -0.32235727
0.20172653 -0.19970469 0.15305817 -0.22872356 0.27563107 0.010403279 -0.2660143 0.037259847
-0.25010294 0.35287285 -0.45416573 0.17122933 0.08279541 -0.10536875 0.2437656 -0.09997196
0.08676767 0.28867862 -0.17830108 0.37862992 -0.106692836 0.5009879 -0.34301314 0.010936469
0.24777353 0.26004034 -0.030097991 -0.2511987 -0.13077998 0.13782571 -0.14361338 -0.11230278
-0.20884229 -0.18703498 -0.10120882 -0.051960826 -0.18863635 0.17102437 0.2944009 0.15130149
0.020838555 0.5016737 -0.11541435 0.14849445 -0.18412617 -0.2725013 -0.072717845 -0.24936883
0.18312258 0.30864015 -0.031005029 -0.0405136 0.05989896 -0.30862114 0.4549911 0.1605124
-0.15154743 -0.12030053 0.14808884 -0.18580641 0.16481054 0.39461446 0.053651784 0.36284864
-0.19925644 0.08501398 -0.28705177 -0.22419831 -0.123773694 0.092027515 0.117238596 -0.057500664
-0.047516625 0.08605041 0.34663528 -0.043420017 -0.087287225 0.022855463 0.093886554 0.08241916
0.20027709 0.21227378 -0.12745906 -0.4043565 0.17911004 -0.10267633 0.19907573 -0.59763336
-0.3143778 0.07047552 0.14483497 0.14069042 0.29137677 -0.25588787 -0.06876118 -0.10576355
0.0035306925 0.34614903 -0.09174755 -0.41067216 0.0054382384 -0.0111888945 -0.05453764 -0.22830443
-0.058278054 -0.30105722 -0.17870638 -0.17894754 0.14449319 -0.08389661 -0.29100144 -0.15602858
-0.0019535422 -0.24262324 -0.15634906 -0.22535414 -0.19456898 -0.14744553 -0.29907376 0.248137
-0.41233942 0.20685811 0.12784046 0.21719569 0.04834479 0.14375108 0.18980074 0.06416576
0.011206227 0.4255065 -0.2499419 0.23884694 -0.07547212 0.11284909 0.027789593 -0.032448947
0.18551025 0.23312777 -0.2670566 0.21710803 -0.274682 0.12012762 0.05891957 0.07061008
0.044707566 0.18284878 0.25137055 -0.23374645 -0.1031527 -0.42299065 -0.067008294 -0.39357495
0.023737706 0.39266026 -0.21315253 -0.29229388 0.035452724 0.021913946 0.24908441 0.19149382
-0.10883104 0.31690767 0.38262177 -0.30724478 -0.5789397 0.09390345 -0.28890392 -0.15227783
-0.27774042 -0.116673924 -0.33748794 -0.27312982 0.22386707 -0.055299092 -0.23905897 -0.11928288
0.29722932 0.050058544 -0.0903925 -0.20321679 0.18489167 -0.10933904 -0.010486454 0.18554938
-0.09485392 -0.15281901 -0.2090899 0.021680906 0.23254931 -0.012997389 -0.020912588 0.38427892
0.14719965 0.1649561 0.23060009 0.46958935 -0.18690205 0.46059763 -0.13330488 -0.10003869
0.29289508 0.1082944 -0.005945384 0.29203406 -0.22766058 -0.23298769 -0.31977823 -0.3842743
0.120549 0.10695977 -0.22681183 0.14634117 0.29803896 0.33944082 0.13719659 -0.054393824
0.2578397 0.035894673 0.04266098 -0.30664906 -0.23761779 -0.25872904 -0.2774551 0.052810073

linear1.bias f4 [256]
00000000: 1d95 be3d d90d ce3e 83f2 ca3d c617 d23c
00000010: d676 693e da74 27bd 567a 053e bfd8 b13e
00000020: 3e32 d63d 9101 223c 3764 3d3e 927c fbbd
00000030: 1df6 91be a861 933e a9d5 633e e3c4 94bd
00000040: ed66 153c 9019 fabc a6e2 2f3b 6237 55be
00000050: cc51 7a3e 3113 eabc e9e1 fa3d e3fa 02bd
00000060: 0945 f3bd ae5f 8d3e 8185 86be 9dd9 713e
00000070: 0204 6b3e a774 ffbc 2dc3 20bd 7f08 233d
00000080: 5fa2 393e d4af e13d 2eab 0abe 1f43 b03e
00000090: bab7 333e fc4a 933d 6fa9 96be a278 4dbc
000000a0: f198 643d 362b 603e 79d3 adbc 1c6c c03d
000000b0: 853f d1bc 6c1c 133e 02d6 71bd 0958 883e
000000c0: 21f5 1c3c a707 b63d 10a7 933d 38d0 b33e
000000d0: 7335 58ba 482d 99be 8220 85be e886 26be
000000e0: 8320 fabd 06af 273e d095 75be b635 683e
000000f0: f68a 393d fdd5 773e 562b 473e cfdf 0ebe
00000100: da5d 18be 7b5f 29be 3542 b1bd fc8e 7a3d
00000110: 882e 93be e29d 523e 78f6 9abd 6baa 3b3e
00000120: 0255 82be 59ee 6e3e e9a2 d0bd 8e72 28bd
00000130: 316c 3f3e 5372 3abe 977b bd3e a087 a43c
00000140: 9e4b 4fbc f5e7 4f3e 2970 82be d743 c13c
00000150: ddca f03d e908 d23d 9a39 c2bd 0387 02be
00000160: aacc a1bd 4e59 943e 8b66 ddba 6818 87bd
00000170: 3842 593e c1fe 083e 4e6c 8f3e acd6 4bbe
00000180: d278 e4bd bf7d a83e 6b98 95bd 759f 103e
00000190: 644e c5bd 2020 0dbd a3ce 11be 0a4c 00be
000001a0: 27e8 24be b94e db3e 7956 a9bd 216f 793e
000001b0: 8724 c13d 30ac 41be 0f88 cbbc 5382 663e
000001c0: 9df0 243e 6677 6d3e 4801 883d c2e1 d63d
000001d0: 5258 883e c835 34be 5a5d 103e 7546 533e
000001e0: 6f1a 003c c3dd 24bd b568 ad3e d380 a43e
000001f0: 8852 6c3e 7a60 c43d 23dd 9fbc a77e 50be
00000200: d8a8 e63d 66b3 58bd 6706 313e 52a5 b63e
00000210: 9909 1ebd c2d3 5ebe 1c8c 04be 996d 463e
00000220: e63e b93e 82e5 b53d e896 bd3e 189d 1dbe
00000230: 3c9d 9dbd 556d 91bd b3ad 59be a70f b9bd
00000240: 7b6b e3ba 49ea 45be bc32 463e 238d d23d
00000250: efb2 223e d976 143d 5fca 2bbe a52a a73e
00000260: 4370 833e f2b0 71be dff3 b13e d1ce 2e3e
00000270: aceb 163d 1a75 a4bd f303 563e f596 b73e
00000280: bde3 77bd ca52 29be 3f12 523e 97ed 843e
00000290: 3a67 4bbe dfee a93d 89b7 5cbe 019d 5d3e
000002a0: 4e42 cd3e 2efc 29be 3b40 09bc 5caf e9bd
000002b0: e88f 66be c614 1d3e 1dd3 8ebd 220b fa3c
000002c0: 3aa3 e73d 1668 9bbe f3b3 fdbd 304d ca3e
000002d0: 9d71 83be 0e9f 59bd 2862 1a3e 1a4f c3bd
000002e0: 5bae 9a3d bb95 a23d 0a6c 863e 41ae 903d
000002f0: 284a 0bbe 32a3 813e 9448 7cbe f61c 3a3e
00000300: 8535 423e 20b7 be3d a82d 223e 68fd 313e
00000310: acf4 9d3e 41a6 7b3e 8d78 44bd f652 4a3d
00000320: 189d d03c b2e2 6e3e 7f6c b63e 3a8d 223d
00000330: 7a0a 2c3d 456a 5c3e 8c8e 8bbe 22fb 96bd
00000340: c4d0 9abe 11a5 5c3e f3df 8abe ec76 db3b
00000350: d8ff 0cbe cd91 14be 4f6d 7a3e 14b5 433d
00000360: 82fb 513e 08f8 c2bd 2638 783d 1b6a 8e3c
00000370: 15e9 7dbd d939 b4bd c878 57bc 5ee0 83be
00000380: c15b 65be 17d2 cc3d 5f65 a13e f915 e83d
00000390: d320 23be 3326 28be afb6 06be 8220 10be
000003a0: a942 3d3e 06c3 b63e 7279 07be caa0 0fbc
000003b0: 68ea 6ebd 3a01 9fbb aaea 32be dce6 443e
000003c0: 560f 91be 3a6b 8e3e ca0e a93c 0801 9c3e
000003d0: 615f 5fbd 8c76 d03d 6513 3e3e 94cd b9bd
000003e0: 7d08 9c3e 3702 853e f709 9c3d b869 83bd
000003f0: 1854 51be fbe3 833e 1bc8 cf3d 48f1 adbb
0.09305785 0.4024494 0.09909537 0.025646102 0.22799239 -0.040882923 0.13034949 0.34735677
0.10458802 0.009888069 0.1849526 -0.12279619 -0.28508082 0.28785443 0.22249474 -0.07264116
0.009118778 -0.030529767 0.0026837974 -0.20821908 0.24445266 -0.028573604 0.1225012 -0.031977545
-0.11878402 0.2761206 -0.2627373 0.23618169 0.22950748 -0.031183554 -0.039248634 0.039803024
0.18128346 0.11019865 -0.13541862 0.3442621 0.17550555 0.071920365 -0.29426143 -0.012540968
0.05580992 0.21891484 -0.021219002 0.0939562 -0.025542984 0.14366311 -0.059041984 0.26629665
0.009579928 0.08888178 0.07209599 0.35119796 -0.00082477106 -0.2991736 -0.26001364 -0.162624
-0.12213232 0.1637536 -0.2398293 0.22676739 0.04529854 0.24202724 0.19450125 -0.13952564
-0.14879552 -0.16540329 -0.08655206 0.061171517 -0.28746438 0.2056804 -0.075665414 0.18326728
-0.2545548 0.2333311 -0.10187323 -0.041124873 0.18693615 -0.18207674 0.37008354 0.020084202
-0.012652306 0.20303328 -0.25476196 0.023591919 0.11757443 0.10255606 -0.09483643 -0.12746815
-0.07900365 0.28974384 -0.0016891522 -0.06596452 0.21216667 0.13378431 0.28012317 -0.1990611
-0.11155857 0.32908437 -0.07304462 0.14123328 -0.096340925 -0.034454465 -0.14238982 -0.12529007
-0.16104184 0.42833498 -0.082684465 0.24358799 0.09430795 -0.1891334 -0.024845151 0.22510652
0.16107412 0.23190078 0.066408694 0.10492279 0.26629883 -0.17598641 0.14098111 0.20632346
0.007818802 -0.04025055 0.33868948 0.32129535 0.23078358 0.09588714 -0.019514626 -0.20360814
0.11262673 -0.052905463 0.17287599 0.35673004 -0.03858337 -0.21760467 -0.12944072 0.19377746
0.361808 0.08881666 0.37029195 -0.15391958 -0.07696006 -0.071009316 -0.21257667 -0.090361886
-0.0017350757 -0.19327654 0.19355291 0.10280826 0.1588857 0.036246154 -0.16776417 0.32649723
0.25671586 -0.23602656 0.3475637 0.17071082 0.036845848 -0.08030148 0.20899944 0.3585736
-0.060519923 -0.16535488 0.20514773 0.25962517 -0.19863597 0.08297514 -0.21554388 0.21641923
0.4008965 -0.16600105 -0.00837713 -0.114104 -0.22515833 0.15339956 -0.069738604 0.030522887
0.1131043 -0.3035285 -0.12387838 0.39512014 -0.25672618 -0.053130202 0.15076506 -0.09536572
0.07552787 0.07938715 0.26254302 0.07064486 -0.13602507 0.2531982 -0.24637061 0.1817511
0.18965729 0.09312272 0.15837729 0.17381823 0.30850732 0.2457514 -0.04796653 0.049395524
0.025465533 0.23328665 0.3562965 0.039685465 0.04200218 0.21524914 -0.27257192 -0.073721185
-0.302374 0.21547343 -0.27123985 0.006697526 -0.13769472 -0.14508744 0.2445576 0.04778011
0.20506099 -0.095199645 0.060600422 0.01738458 -0.061989862 -0.08800096 -0.013151355 -0.25757116
-0.22398283 0.10001009 0.31522653 0.11332316 -0.1593049 -0.16420822 -0.13155626 -0.14074901
0.1848246 0.35695666 -0.13229921 -0.008766362 -0.058329016 -0.004852441 -0.1747233 0.19228691
-0.28332013 0.27816182 0.020636935 0.30469537 -0.05453432 0.10178861 0.18562086 -0.09072414
0.30475226 0.25978252 0.07619088 -0.064166486 -0.20442235 0.25759873 0.10145589 -0.005308304

linear2.weight f4 [3, 256]
00000000: 8888 943c e4dd 04be 3073 d6be c9dd b63d
00000010: 6d32 83bc 4d4e bb3c e0e9 e0bd 0a75 bfbd
00000020: d01e 35be 67a1 31bd daae 62bd a782 99bd
00000030: 88a8 c73c c9cc be3d b3e1 14be 89c6 0abe
00000040: 78cc 8ebe f0e9 c4bd 09a6 fabc 5867 f93c
00000050: 6245 27be f0cf 06be 6b61 3fbe e687 a13a
00000060: de4c 813e 8301 53be 76a0 31bd 8cf8 93be
00000070: 380e 3fbd 4d6a 16be fa6d 99bd f505 a5bd
00000080: 2636 f6bd 1004 03bd 2547 1abe 6d39 82bd
00000090: aee3 4ebd fee7 b0bd 4e7d 11bd 8c60 06be
000000a0: 0328 a2bd df08 c0bc 80e5 2c3d b89d 13be
000000b0: 6f3c 25be 5575 10be 167d 71bd 6f99 57be
000000c0: b9e2 c3bd 3325 17bd 2ed4 c6bd fcf9 8ebd
000000d0: da60 0c3e b5e1 c53c 1d92 40be f0da 73bd
000000e0: c189 68bc ccb1 15be cb60 d1be 83d8 15bd
000000f0: 09a2 2fbe 15e0 2bbd 2323 3dbd 5bad 83bd
00000100: 76a1 213e c0c5 8fbb a2d6 97be 0b09 6cbd
00000110: 3ccc 8e3c a6bc cdbd 86b1 1cbe e2df e7ba
00000120: c97f e93c f366 6cbe d5d1 953c f7f4 46bd
00000130: 2bbd 1fbe c9d4 b8bd 6ba6 30be bd63 993d
00000140: 0091 8d3d 4cba 2abd 2576 8fbd ff33 18be
00000150: 7471 e6bc c086 00be d4bc 8ebe 772c 13be
00000160: 81ea 23ba 9e3a dbbd 9d35 2dbe 8651 cf3d
00000170: ec01 bfbd 89e6 a3bc d4a6 f7bd a9f3 33be
00000180: 78bd 32bb edc0 42be a205 773e 4262 9fbd
00000190: 733c b4be d20b 81be 9cac a6bd 0974 f4bd
000001a0: 1135 8abe 3bdc 0ebe 59e5 68be 3125 1bbe
000001b0: f64a 60be bd09 233d fef9 523e 7f06 8abe
000001c0: cbeb 49bd 4112 cfbd 38f2 6f3c 9ffd 23be
000001d0: bd23 5b3d 80a3 9d3b 4729 cebd e350 75be
000001e0: 590a 2bbe 8950 0fbe 1ef3 c2bd bb1c 9bbe
000001f0: c245 e83d ec05 fcbd 61a9 90bd b3da e13d
00000200: 510b a13e 3101 15bc a4cb a2bd 9fdc 9fbd
00000210: 5ebf 563e bedf 9d3d 8e93 6e3d 8c59 0dbe
00000220: 778c f0bd 4ad5 7dbd 8779 09be d5b5 193e
00000230: 6d75 8bbd 560a 21be 4dbb 22be e2e6 c2bd
00000240: a178 12be 5d52 8dbd 7e8d 34be 8d0b c5bd
00000250: aa17 44bd 34cc d4bd 806f aabd 94ea 03be
00000260: 151f 2bbe 1636 17bd 54e0 bcbd cc02 ffbd
00000270: d2bf f83d 7501 1abd 2d44 23be fde6 88bd
00000280: 524b 993e cc7e 4fbd ceae e9bd a918 32bd
00000290: 5ec5 9bbc 324a 58bd b7f8 033e 0481 b3bd
000002a0: 8f06 d9bd b859 0a3c 8c08 9ebe 2602 6fbe
000002b0: d9a4 2abb 962e b3bd 46c9 0cbe 38d6 8abd
000002c0: 6638 a1bd 1fa5 0f3d d753 6fbd 34bf d5bd
000002d0: fa85 6a3d 4620 0b3e e085 e4bd dcac 86bc
000002e0: 2b65 7abd 22ac efbd 3d42 26be c139 fbbd
000002f0: 79e4 fbbd 606d 01be 3214 e93c 42de cabd
00000300: 66ae 0fbe 21ec cdbd 6379 52be d79b 34bd
00000310: 16b7 3dbd 6768 a4bd 0d49 7ebe 06e1 8a3c
00000320: e008 06be d5f3 88be 33f9 bbbd ec99 9e3e
00000330: 0be8 75be 7a5f 32be 91b4 0dbe 0eec 8abe
00000340: 6019 503c 2afd b9bd eda0 00be 2ed1 12be
00000350: 62a3 4fbd dc1a 70bd ebe9 af3c b782 f53d
00000360: 8ef0 18be ac1d f0bd a543 71bd 9c8a 9dbb
00000370: 532a 313d 6cb3 853c a493 abbe 13f4 cabd
00000380: b5ac 0dbe 2ab7 3cbd e35a e6bd bb2e 2fbc
00000390: 0fe2 32bd f541 49bd b22a 04be 900c 163d
000003a0: cca5 8c3d 658a d7be 101f 89bc 1378 1a3e
000003b0: d9ff c1bd 13bc e0bc 9a0d acbe 0773 72be
000003c0: 2020 67bd 3c14 26bd ba9c 07bd 0541 f8bd
000003d0: 177a 0c3d 0667 f1bd 2d41 a2be 94ec b33d
000003e0: 7dff 94bd 4e19 24be 3828 0a3d 5eb0 273e
000003f0: 0043 e0ba 2c8a dcbd eeea 1fbe 9dc3 b2bd
0.01813151 -0.1297527 -0.41884756 0.08929021 -0.016015256 0.022864485 -0.10982108 -0.09348495
-0.17687535 -0.043366816 -0.055342533 -0.07495623 0.024372354 0.093164034 -0.14539222 -0.13552298
-0.27890372 -0.096149325 -0.03059675 0.030444786 -0.16335061 -0.1316526 -0.18689506 0.0012323826
0.25253958 -0.20606045 -0.043365918 -0.28900564 -0.04664442 -0.14688988 -0.074916795 -0.08057777
-0.12022047 -0.031986296 -0.15066202 -0.06358609 -0.0505101 -0.08637999 -0.03551989 -0.13122767
-0.07917788 -0.02344173 0.042211056 -0.14415634 -0.16136335 -0.14107259 -0.058957182 -0.21054624
-0.09564728 -0.03690071 -0.09708439 -0.069812745 0.13708821 0.024155477 -0.18805738 -0.059534967
-0.014192999 -0.14618605 -0.4089416 -0.036583435 -0.17151655 -0.04196175 -0.046176087 -0.06429549
0.15784249 -0.0043875873 -0.2965594 -0.05762581 0.01743137 -0.100457475 -0.15302095 -0.0017690624
0.028503316 -0.23086147 0.018288532 -0.04857346 -0.15599506 -0.090249605 -0.17250983 0.07489727
0.06912422 -0.041681573 -0.07004956 -0.14863585 -0.02813027 -0.12551403 -0.2787844 -0.1437243
-0.00062529003 -0.1070454 -0.16914983 0.10122971 -0.093265384 -0.020007389 -0.12092367 -0.17573418
-0.0027273577 -0.19018908 0.24123242 -0.07782413 -0.3520237 -0.2520433 -0.081383914 -0.119361944
-0.2699361 -0.13951199 -0.22743739 -0.15150906 -0.21903595 0.03980421 0.20603177 -0.2695808
-0.049297135 -0.101109035 0.014645152 -0.16014718 0.05350088 0.0048107505 -0.10066467 -0.23956637
-0.16703166 -0.13995565 -0.09519027 -0.30295357 0.1134143 -0.12305817 -0.070635565 0.11028042
0.31453946 -0.009094522 -0.079489976 -0.07805752 0.20971438 0.07708691 0.058246188 -0.1380369
-0.117455415 -0.061970986 -0.13425265 0.1501077 -0.068095066 -0.15726599 -0.15891762 -0.09516694
-0.14303829 -0.06900475 -0.176321 -0.09621344 -0.04787413 -0.10390511 -0.08322048 -0.12882453
-0.16711076 -0.036916815 -0.09222475 -0.12451705 0.12145962 -0.037599046 -0.15943976 -0.066846825
0.29940277 -0.050658032 -0.114102945 -0.04348055 -0.01901501 -0.052805133 0.12887846 -0.08764842
-0.10596954 0.008444242 -0.30865896 -0.23340663 -0.0026038198 -0.0874912 -0.13748655 -0.0677914
-0.07872085 0.03506958 -0.058429565 -0.1043686 0.057256676 0.1358653 -0.11158347 -0.016439848
-0.061131638 -0.117027536 -0.16236205 -0.12266875 -0.12299437 -0.1263938 0.028452013 -0.099056736
-0.14031371 -0.10054804 -0.20554118 -0.044093933 -0.046317182 -0.08027726 -0.24832554 0.016953003
-0.13089323 -0.2674853 -0.0917839 0.30976808 -0.24014299 -0.17419234 -0.13838412 -0.2713322
0.012701362 -0.0908149 -0.12561388 -0.14337608 -0.050692923 -0.058619365 0.021473845 0.119878225
-0.14935514 -0.117244095 -0.0589024 -0.0048077833 0.043253254 0.016320907 -0.33511078 -0.09909835
-0.13835414 -0.046073116 -0.11247804 -0.010692294 -0.043672618 -0.049135167 -0.12906912 0.036633074
0.06867561 -0.42097774 -0.016738445 0.15084867 -0.09472627 -0.02743343 -0.33604127 -0.23676692
-0.05642712 -0.04054664 -0.03310845 -0.121217765 0.03429612 -0.11787228 -0.3169035 0.08785358
-0.07275293 -0.16025278 0.03372976 0.16375872 -0.0017109811 -0.10768542 -0.15616962 -0.087287165

linear2.bias f4 [3]
00000000: ec17 2bbe 8384 06bc 0d2a acbc
-0.16708344 -0.008210304 -0.021016145
